…
odict_keys(['conv1_1.weight', 'conv1_1.bias', 'conv1_2.weight', 'conv1_2.bias', 'conv2_1.weight', 'conv2_1.bias', 'conv2_2.weight', 'conv2_2.bias', 'conv3_1.weight', 'conv3_1.bias', 'conv3_2.weight', 'conv3_2.bias', 'conv3_3.weight', 'conv3_3.bias', 'conv3_4.weight', 'conv3_4.bias', 'conv4_1.weight', 'conv4_1.bias', 'conv4_2.weight', 'conv4_2.bias', 'conv4_3.weight', 'conv4_3.bias', 'conv4_4.weight', 'conv4_4.bias', 'conv5_1.weight', 'conv5_1.bias', 'conv5_2.weight', 'conv5_2.bias', 'conv5_3.weight', 'conv5_3.bias', 'conv5_4.weight', 'conv5_4.bias'])
---------- Networks initialized -------------
Resnet2XGenerator2(
  (model): Sequential(
    (0): ReflectionPad2d((3, 3, 3, 3))
    (1): Conv2d(6, 64, kernel_size=(7, 7), stride=(1, 1))
    (2): ReLU(inplace=True)
    (3): Conv2d(64, 128, kernel_size=(3, 3), stride=(2, 2), padding=(1, 1))
    (4): ReLU(inplace=True)
    (5): Conv2d(128, 256, kernel_size=(3, 3), stride=(2, 2), padding=(1, 1))
    (6): ReLU(inplace=True)
  )
  (resblock): Sequential(
    (0): RG_Block(
      (rg_block): Sequential(
        (0): RCAB_Block(
          (rcab): Sequential(
            (0): Conv2d(256, 256, kernel_size=(3, 3), stride=(1, 1), padding=(1, 1))
            (1): ReLU(inplace=True)
            (2): Conv2d(256, 256, kernel_size=(3, 3), stride=(1, 1), padding=(1, 1))
            (3): CA_Block(
              (se_module): Sequential(
                (0): AdaptiveAvgPool2d(output_size=1)
                (1): Conv2d(256, 16, kernel_size=(1, 1), stride=(1, 1))
                (2): ReLU(inplace=True)
                (3): Conv2d(16, 256, kernel_size=(1, 1), stride=(1, 1))
                (4): Sigmoid()
              )
            )
          )
        )
        (1): RCAB_Block(
          (rcab): Sequential(
            (0): Conv2d(256, 256, kernel_size=(3, 3), stride=(1, 1), padding=(1, 1))
            (1): ReLU(inplace=True)
            (2): Conv2d(256, 256, kernel_size=(3, 3), stride=(1, 1), padding=(1, 1))
            (3): CA_Block(
              (se_module): Sequential(
                (0): AdaptiveAvgPool2d(output_size=1)
                (1): Conv2d(256, 16, kernel_size=(1, 1), stride=(1, 1))
                (2): ReLU(inplace=True)
                (3): Conv2d(16, 256, kernel_size=(1, 1), stride=(1, 1))
                (4): Sigmoid()
              )
            )
          )
        )
        (2): RCAB_Block(
          (rcab): Sequential(
            (0): Conv2d(256, 256, kernel_size=(3, 3), stride=(1, 1), padding=(1, 1))
            (1): ReLU(inplace=True)
            (2): Conv2d(256, 256, kernel_size=(3, 3), stride=(1, 1), padding=(1, 1))
            (3): CA_Block(
              (se_module): Sequential(
                (0): AdaptiveAvgPool2d(output_size=1)
                (1): Conv2d(256, 16, kernel_size=(1, 1), stride=(1, 1))
                (2): ReLU(inplace=True)
                (3): Conv2d(16, 256, kernel_size=(1, 1), stride=(1, 1))
                (4): Sigmoid()
              )
            )
          )
        )
        (3): RCAB_Block(
          (rcab): Sequential(
            (0): Conv2d(256, 256, kernel_size=(3, 3), stride=(1, 1), padding=(1, 1))
            (1): ReLU(inplace=True)
            (2): Conv2d(256, 256, kernel_size=(3, 3), stride=(1, 1), padding=(1, 1))
            (3): CA_Block(
              (se_module): Sequential(
                (0): AdaptiveAvgPool2d(output_size=1)
                (1): Conv2d(256, 16, kernel_size=(1, 1), stride=(1, 1))
                (2): ReLU(inplace=True)
                (3): Conv2d(16, 256, kernel_size=(1, 1), stride=(1, 1))
                (4): Sigmoid()
              )
            )
          )
        )
        (4): RCAB_Block(
          (rcab): Sequential(
            (0): Conv2d(256, 256, kernel_size=(3, 3), stride=(1, 1), padding=(1, 1))
            (1): ReLU(inplace=True)
            (2): Conv2d(256, 256, kernel_size=(3, 3), stride=(1, 1), padding=(1, 1))
            (3): CA_Block(
              (se_module): Sequential(
                (0): AdaptiveAvgPool2d(output_size=1)
                (1): Conv2d(256, 16, kernel_size=(1, 1), stride=(1, 1))
                (2): ReLU(inplace=True)
                (3): Conv2d(16, 256, kernel_size=(1, 1), stride=(1, 1))
                (4): Sigmoid()
              )
            )
          )
        )
        (5): RCAB_Block(
          (rcab): Sequential(
            (0): Conv2d(256, 256, kernel_size=(3, 3), stride=(1, 1), padding=(1, 1))
            (1): ReLU(inplace=True)
            (2): Conv2d(256, 256, kernel_size=(3, 3), stride=(1, 1), padding=(1, 1))
            (3): CA_Block(
              (se_module): Sequential(
                (0): AdaptiveAvgPool2d(output_size=1)
                (1): Conv2d(256, 16, kernel_size=(1, 1), stride=(1, 1))
                (2): ReLU(inplace=True)
                (3): Conv2d(16, 256, kernel_size=(1, 1), stride=(1, 1))
                (4): Sigmoid()
              )
            )
          )
        )
        (6): RCAB_Block(
          (rcab): Sequential(
            (0): Conv2d(256, 256, kernel_size=(3, 3), stride=(1, 1), padding=(1, 1))
            (1): ReLU(inplace=True)
            (2): Conv2d(256, 256, kernel_size=(3, 3), stride=(1, 1), padding=(1, 1))
            (3): CA_Block(
              (se_module): Sequential(
                (0): AdaptiveAvgPool2d(output_size=1)
                (1): Conv2d(256, 16, kernel_size=(1, 1), stride=(1, 1))
                (2): ReLU(inplace=True)
                (3): Conv2d(16, 256, kernel_size=(1, 1), stride=(1, 1))
                (4): Sigmoid()
              )
            )
          )
        )
        (7): RCAB_Block(
          (rcab): Sequential(
            (0): Conv2d(256, 256, kernel_size=(3, 3), stride=(1, 1), padding=(1, 1))
            (1): ReLU(inplace=True)
            (2): Conv2d(256, 256, kernel_size=(3, 3), stride=(1, 1), padding=(1, 1))
            (3): CA_Block(
              (se_module): Sequential(
                (0): AdaptiveAvgPool2d(output_size=1)
                (1): Conv2d(256, 16, kernel_size=(1, 1), stride=(1, 1))
                (2): ReLU(inplace=True)
                (3): Conv2d(16, 256, kernel_size=(1, 1), stride=(1, 1))
                (4): Sigmoid()
              )
            )
          )
        )
        (8): RCAB_Block(
          (rcab): Sequential(
            (0): Conv2d(256, 256, kernel_size=(3, 3), stride=(1, 1), padding=(1, 1))
            (1): ReLU(inplace=True)
            (2): Conv2d(256, 256, kernel_size=(3, 3), stride=(1, 1), padding=(1, 1))
            (3): CA_Block(
              (se_module): Sequential(
                (0): AdaptiveAvgPool2d(output_size=1)
                (1): Conv2d(256, 16, kernel_size=(1, 1), stride=(1, 1))
                (2): ReLU(inplace=True)
                (3): Conv2d(16, 256, kernel_size=(1, 1), stride=(1, 1))
                (4): Sigmoid()
              )
            )
          )
        )
        (9): RCAB_Block(
          (rcab): Sequential(
            (0): Conv2d(256, 256, kernel_size=(3, 3), stride=(1, 1), padding=(1, 1))
            (1): ReLU(inplace=True)
            (2): Conv2d(256, 256, kernel_size=(3, 3), stride=(1, 1), padding=(1, 1))
            (3): CA_Block(
              (se_module): Sequential(
                (0): AdaptiveAvgPool2d(output_size=1)
                (1): Conv2d(256, 16, kernel_size=(1, 1), stride=(1, 1))
                (2): ReLU(inplace=True)
                (3): Conv2d(16, 256, kernel_size=(1, 1), stride=(1, 1))
                (4): Sigmoid()
              )
            )
          )
        )
        (10): RCAB_Block(
          (rcab): Sequential(
            (0): Conv2d(256, 256, kernel_size=(3, 3), stride=(1, 1), padding=(1, 1))
            (1): ReLU(inplace=True)
            (2): Conv2d(256, 256, kernel_size=(3, 3), stride=(1, 1), padding=(1, 1))
            (3): CA_Block(
              (se_module): Sequential(
                (0): AdaptiveAvgPool2d(output_size=1)
                (1): Conv2d(256, 16, kernel_size=(1, 1), stride=(1, 1))
                (2): ReLU(inplace=True)
                (3): Conv2d(16, 256, kernel_size=(1, 1), stride=(1, 1))
                (4): Sigmoid()
              )
            )
          )
        )
        (11): RCAB_Block(
          (rcab): Sequential(
            (0): Conv2d(256, 256, kernel_size=(3, 3), stride=(1, 1), padding=(1, 1))
            (1): ReLU(inplace=True)
            (2): Conv2d(256, 256, kernel_size=(3, 3), stride=(1, 1), padding=(1, 1))
            (3): CA_Block(
              (se_module): Sequential(
                (0): AdaptiveAvgPool2d(output_size=1)
                (1): Conv2d(256, 16, kernel_size=(1, 1), stride=(1, 1))
                (2): ReLU(inplace=True)
                (3): Conv2d(16, 256, kernel_size=(1, 1), stride=(1, 1))
                (4): Sigmoid()
              )
            )
          )
        )
        (12): RCAB_Block(
          (rcab): Sequential(
            (0): Conv2d(256, 256, kernel_size=(3, 3), stride=(1, 1), padding=(1, 1))
            (1): ReLU(inplace=True)
            (2): Conv2d(256, 256, kernel_size=(3, 3), stride=(1, 1), padding=(1, 1))
            (3): CA_Block(
              (se_module): Sequential(
                (0): AdaptiveAvgPool2d(output_size=1)
                (1): Conv2d(256, 16, kernel_size=(1, 1), stride=(1, 1))
                (2): ReLU(inplace=True)
                (3): Conv2d(16, 256, kernel_size=(1, 1), stride=(1, 1))
                (4): Sigmoid()
              )
            )
          )
        )
        (13): RCAB_Block(
          (rcab): Sequential(
            (0): Conv2d(256, 256, kernel_size=(3, 3), stride=(1, 1), padding=(1, 1))
            (1): ReLU(inplace=True)
            (2): Conv2d(256, 256, kernel_size=(3, 3), stride=(1, 1), padding=(1, 1))
            (3): CA_Block(
              (se_module): Sequential(
                (0): AdaptiveAvgPool2d(output_size=1)
                (1): Conv2d(256, 16, kernel_size=(1, 1), stride=(1, 1))
                (2): ReLU(inplace=True)
                (3): Conv2d(16, 256, kernel_size=(1, 1), stride=(1, 1))
                (4): Sigmoid()
              )
            )
          )
        )
        (14): RCAB_Block(
          (rcab): Sequential(
            (0): Conv2d(256, 256, kernel_size=(3, 3), stride=(1, 1), padding=(1, 1))
            (1): ReLU(inplace=True)
            (2): Conv2d(256, 256, kernel_size=(3, 3), stride=(1, 1), padding=(1, 1))
            (3): CA_Block(
              (se_module): Sequential(
                (0): AdaptiveAvgPool2d(output_size=1)
                (1): Conv2d(256, 16, kernel_size=(1, 1), stride=(1, 1))
                (2): ReLU(inplace=True)
                (3): Conv2d(16, 256, kernel_size=(1, 1), stride=(1, 1))
                (4): Sigmoid()
              )
            )
          )
        )
        (15): RCAB_Block(
          (rcab): Sequential(
            (0): Conv2d(256, 256, kernel_size=(3, 3), stride=(1, 1), padding=(1, 1))
            (1): ReLU(inplace=True)
            (2): Conv2d(256, 256, kernel_size=(3, 3), stride=(1, 1), padding=(1, 1))
            (3): CA_Block(
              (se_module): Sequential(
                (0): AdaptiveAvgPool2d(output_size=1)
                (1): Conv2d(256, 16, kernel_size=(1, 1), stride=(1, 1))
                (2): ReLU(inplace=True)
                (3): Conv2d(16, 256, kernel_size=(1, 1), stride=(1, 1))
                (4): Sigmoid()
              )
            )
          )
        )
        (16): RCAB_Block(
          (rcab): Sequential(
            (0): Conv2d(256, 256, kernel_size=(3, 3), stride=(1, 1), padding=(1, 1))
            (1): ReLU(inplace=True)
            (2): Conv2d(256, 256, kernel_size=(3, 3), stride=(1, 1), padding=(1, 1))
            (3): CA_Block(
              (se_module): Sequential(
                (0): AdaptiveAvgPool2d(output_size=1)
                (1): Conv2d(256, 16, kernel_size=(1, 1), stride=(1, 1))
                (2): ReLU(inplace=True)
                (3): Conv2d(16, 256, kernel_size=(1, 1), stride=(1, 1))
                (4): Sigmoid()
              )
            )
          )
        )
        (17): RCAB_Block(
          (rcab): Sequential(
            (0): Conv2d(256, 256, kernel_size=(3, 3), stride=(1, 1), padding=(1, 1))
            (1): ReLU(inplace=True)
            (2): Conv2d(256, 256, kernel_size=(3, 3), stride=(1, 1), padding=(1, 1))
            (3): CA_Block(
              (se_module): Sequential(
                (0): AdaptiveAvgPool2d(output_size=1)
                (1): Conv2d(256, 16, kernel_size=(1, 1), stride=(1, 1))
                (2): ReLU(inplace=True)
                (3): Conv2d(16, 256, kernel_size=(1, 1), stride=(1, 1))
                (4): Sigmoid()
              )
            )
          )
        )
        (18): RCAB_Block(
          (rcab): Sequential(
            (0): Conv2d(256, 256, kernel_size=(3, 3), stride=(1, 1), padding=(1, 1))
            (1): ReLU(inplace=True)
            (2): Conv2d(256, 256, kernel_size=(3, 3), stride=(1, 1), padding=(1, 1))
            (3): CA_Block(
              (se_module): Sequential(
                (0): AdaptiveAvgPool2d(output_size=1)
                (1): Conv2d(256, 16, kernel_size=(1, 1), stride=(1, 1))
                (2): ReLU(inplace=True)
                (3): Conv2d(16, 256, kernel_size=(1, 1), stride=(1, 1))
                (4): Sigmoid()
              )
            )
          )
        )
        (19): RCAB_Block(
          (rcab): Sequential(
            (0): Conv2d(256, 256, kernel_size=(3, 3), stride=(1, 1), padding=(1, 1))
            (1): ReLU(inplace=True)
            (2): Conv2d(256, 256, kernel_size=(3, 3), stride=(1, 1), padding=(1, 1))
            (3): CA_Block(
              (se_module): Sequential(
                (0): AdaptiveAvgPool2d(output_size=1)
                (1): Conv2d(256, 16, kernel_size=(1, 1), stride=(1, 1))
                (2): ReLU(inplace=True)
                (3): Conv2d(16, 256, kernel_size=(1, 1), stride=(1, 1))
                (4): Sigmoid()
              )
            )
          )
        )
        (20): Conv2d(256, 256, kernel_size=(3, 3), stride=(1, 1), padding=(1, 1))
      )
    )
    (1): RG_Block(
      (rg_block): Sequential(
        (0): RCAB_Block(
          (rcab): Sequential(
            (0): Conv2d(256, 256, kernel_size=(3, 3), stride=(1, 1), padding=(1, 1))
            (1): ReLU(inplace=True)
            (2): Conv2d(256, 256, kernel_size=(3, 3), stride=(1, 1), padding=(1, 1))
            (3): CA_Block(
              (se_module): Sequential(
                (0): AdaptiveAvgPool2d(output_size=1)
                (1): Conv2d(256, 16, kernel_size=(1, 1), stride=(1, 1))
                (2): ReLU(inplace=True)
                (3): Conv2d(16, 256, kernel_size=(1, 1), stride=(1, 1))
                (4): Sigmoid()
              )
            )
          )
        )
        (1): RCAB_Block(
          (rcab): Sequential(
            (0): Conv2d(256, 256, kernel_size=(3, 3), stride=(1, 1), padding=(1, 1))
            (1): ReLU(inplace=True)
            (2): Conv2d(256, 256, kernel_size=(3, 3), stride=(1, 1), padding=(1, 1))
            (3): CA_Block(
              (se_module): Sequential(
                (0): AdaptiveAvgPool2d(output_size=1)
                (1): Conv2d(256, 16, kernel_size=(1, 1), stride=(1, 1))
                (2): ReLU(inplace=True)
                (3): Conv2d(16, 256, kernel_size=(1, 1), stride=(1, 1))
                (4): Sigmoid()
              )
            )
          )
        )
        (2): RCAB_Block(
          (rcab): Sequential(
            (0): Conv2d(256, 256, kernel_size=(3, 3), stride=(1, 1), padding=(1, 1))
            (1): ReLU(inplace=True)
            (2): Conv2d(256, 256, kernel_size=(3, 3), stride=(1, 1), padding=(1, 1))
            (3): CA_Block(
              (se_module): Sequential(
                (0): AdaptiveAvgPool2d(output_size=1)
                (1): Conv2d(256, 16, kernel_size=(1, 1), stride=(1, 1))
                (2): ReLU(inplace=True)
                (3): Conv2d(16, 256, kernel_size=(1, 1), stride=(1, 1))
                (4): Sigmoid()
              )
            )
          )
        )
        (3): RCAB_Block(
          (rcab): Sequential(
            (0): Conv2d(256, 256, kernel_size=(3, 3), stride=(1, 1), padding=(1, 1))
            (1): ReLU(inplace=True)
            (2): Conv2d(256, 256, kernel_size=(3, 3), stride=(1, 1), padding=(1, 1))
            (3): CA_Block(
              (se_module): Sequential(
                (0): AdaptiveAvgPool2d(output_size=1)
                (1): Conv2d(256, 16, kernel_size=(1, 1), stride=(1, 1))
                (2): ReLU(inplace=True)
                (3): Conv2d(16, 256, kernel_size=(1, 1), stride=(1, 1))
                (4): Sigmoid()
              )
            )
          )
        )
        (4): RCAB_Block(
          (rcab): Sequential(
            (0): Conv2d(256, 256, kernel_size=(3, 3), stride=(1, 1), padding=(1, 1))
            (1): ReLU(inplace=True)
            (2): Conv2d(256, 256, kernel_size=(3, 3), stride=(1, 1), padding=(1, 1))
            (3): CA_Block(
              (se_module): Sequential(
                (0): AdaptiveAvgPool2d(output_size=1)
                (1): Conv2d(256, 16, kernel_size=(1, 1), stride=(1, 1))
                (2): ReLU(inplace=True)
                (3): Conv2d(16, 256, kernel_size=(1, 1), stride=(1, 1))
                (4): Sigmoid()
              )
            )
          )
        )
        (5): RCAB_Block(
          (rcab): Sequential(
            (0): Conv2d(256, 256, kernel_size=(3, 3), stride=(1, 1), padding=(1, 1))
            (1): ReLU(inplace=True)
            (2): Conv2d(256, 256, kernel_size=(3, 3), stride=(1, 1), padding=(1, 1))
            (3): CA_Block(
              (se_module): Sequential(
                (0): AdaptiveAvgPool2d(output_size=1)
                (1): Conv2d(256, 16, kernel_size=(1, 1), stride=(1, 1))
                (2): ReLU(inplace=True)
                (3): Conv2d(16, 256, kernel_size=(1, 1), stride=(1, 1))
                (4): Sigmoid()
              )
            )
          )
        )
        (6): RCAB_Block(
          (rcab): Sequential(
            (0): Conv2d(256, 256, kernel_size=(3, 3), stride=(1, 1), padding=(1, 1))
            (1): ReLU(inplace=True)
            (2): Conv2d(256, 256, kernel_size=(3, 3), stride=(1, 1), padding=(1, 1))
            (3): CA_Block(
              (se_module): Sequential(
                (0): AdaptiveAvgPool2d(output_size=1)
                (1): Conv2d(256, 16, kernel_size=(1, 1), stride=(1, 1))
                (2): ReLU(inplace=True)
                (3): Conv2d(16, 256, kernel_size=(1, 1), stride=(1, 1))
                (4): Sigmoid()
              )
            )
          )
        )
        (7): RCAB_Block(
          (rcab): Sequential(
            (0): Conv2d(256, 256, kernel_size=(3, 3), stride=(1, 1), padding=(1, 1))
            (1): ReLU(inplace=True)
            (2): Conv2d(256, 256, kernel_size=(3, 3), stride=(1, 1), padding=(1, 1))
            (3): CA_Block(
              (se_module): Sequential(
                (0): AdaptiveAvgPool2d(output_size=1)
                (1): Conv2d(256, 16, kernel_size=(1, 1), stride=(1, 1))
                (2): ReLU(inplace=True)
                (3): Conv2d(16, 256, kernel_size=(1, 1), stride=(1, 1))
                (4): Sigmoid()
              )
            )
          )
        )
        (8): RCAB_Block(
          (rcab): Sequential(
            (0): Conv2d(256, 256, kernel_size=(3, 3), stride=(1, 1), padding=(1, 1))
            (1): ReLU(inplace=True)
            (2): Conv2d(256, 256, kernel_size=(3, 3), stride=(1, 1), padding=(1, 1))
            (3): CA_Block(
              (se_module): Sequential(
                (0): AdaptiveAvgPool2d(output_size=1)
                (1): Conv2d(256, 16, kernel_size=(1, 1), stride=(1, 1))
                (2): ReLU(inplace=True)
                (3): Conv2d(16, 256, kernel_size=(1, 1), stride=(1, 1))
                (4): Sigmoid()
              )
            )
          )
        )
        (9): RCAB_Block(
          (rcab): Sequential(
            (0): Conv2d(256, 256, kernel_size=(3, 3), stride=(1, 1), padding=(1, 1))
            (1): ReLU(inplace=True)
            (2): Conv2d(256, 256, kernel_size=(3, 3), stride=(1, 1), padding=(1, 1))
            (3): CA_Block(
              (se_module): Sequential(
                (0): AdaptiveAvgPool2d(output_size=1)
                (1): Conv2d(256, 16, kernel_size=(1, 1), stride=(1, 1))
                (2): ReLU(inplace=True)
                (3): Conv2d(16, 256, kernel_size=(1, 1), stride=(1, 1))
                (4): Sigmoid()
              )
            )
          )
        )
        (10): RCAB_Block(
          (rcab): Sequential(
            (0): Conv2d(256, 256, kernel_size=(3, 3), stride=(1, 1), padding=(1, 1))
            (1): ReLU(inplace=True)
            (2): Conv2d(256, 256, kernel_size=(3, 3), stride=(1, 1), padding=(1, 1))
            (3): CA_Block(
              (se_module): Sequential(
                (0): AdaptiveAvgPool2d(output_size=1)
                (1): Conv2d(256, 16, kernel_size=(1, 1), stride=(1, 1))
                (2): ReLU(inplace=True)
                (3): Conv2d(16, 256, kernel_size=(1, 1), stride=(1, 1))
                (4): Sigmoid()
              )
            )
          )
        )
        (11): RCAB_Block(
          (rcab): Sequential(
            (0): Conv2d(256, 256, kernel_size=(3, 3), stride=(1, 1), padding=(1, 1))
            (1): ReLU(inplace=True)
            (2): Conv2d(256, 256, kernel_size=(3, 3), stride=(1, 1), padding=(1, 1))
            (3): CA_Block(
              (se_module): Sequential(
                (0): AdaptiveAvgPool2d(output_size=1)
                (1): Conv2d(256, 16, kernel_size=(1, 1), stride=(1, 1))
                (2): ReLU(inplace=True)
                (3): Conv2d(16, 256, kernel_size=(1, 1), stride=(1, 1))
                (4): Sigmoid()
              )
            )
          )
        )
        (12): RCAB_Block(
          (rcab): Sequential(
            (0): Conv2d(256, 256, kernel_size=(3, 3), stride=(1, 1), padding=(1, 1))
            (1): ReLU(inplace=True)
            (2): Conv2d(256, 256, kernel_size=(3, 3), stride=(1, 1), padding=(1, 1))
            (3): CA_Block(
              (se_module): Sequential(
                (0): AdaptiveAvgPool2d(output_size=1)
                (1): Conv2d(256, 16, kernel_size=(1, 1), stride=(1, 1))
                (2): ReLU(inplace=True)
                (3): Conv2d(16, 256, kernel_size=(1, 1), stride=(1, 1))
                (4): Sigmoid()
              )
            )
          )
        )
        (13): RCAB_Block(
          (rcab): Sequential(
            (0): Conv2d(256, 256, kernel_size=(3, 3), stride=(1, 1), padding=(1, 1))
            (1): ReLU(inplace=True)
            (2): Conv2d(256, 256, kernel_size=(3, 3), stride=(1, 1), padding=(1, 1))
            (3): CA_Block(
              (se_module): Sequential(
                (0): AdaptiveAvgPool2d(output_size=1)
                (1): Conv2d(256, 16, kernel_size=(1, 1), stride=(1, 1))
                (2): ReLU(inplace=True)
                (3): Conv2d(16, 256, kernel_size=(1, 1), stride=(1, 1))
                (4): Sigmoid()
              )
            )
          )
        )
        (14): RCAB_Block(
          (rcab): Sequential(
            (0): Conv2d(256, 256, kernel_size=(3, 3), stride=(1, 1), padding=(1, 1))
            (1): ReLU(inplace=True)
            (2): Conv2d(256, 256, kernel_size=(3, 3), stride=(1, 1), padding=(1, 1))
            (3): CA_Block(
              (se_module): Sequential(
                (0): AdaptiveAvgPool2d(output_size=1)
                (1): Conv2d(256, 16, kernel_size=(1, 1), stride=(1, 1))
                (2): ReLU(inplace=True)
                (3): Conv2d(16, 256, kernel_size=(1, 1), stride=(1, 1))
                (4): Sigmoid()
              )
            )
          )
        )
        (15): RCAB_Block(
          (rcab): Sequential(
            (0): Conv2d(256, 256, kernel_size=(3, 3), stride=(1, 1), padding=(1, 1))
            (1): ReLU(inplace=True)
            (2): Conv2d(256, 256, kernel_size=(3, 3), stride=(1, 1), padding=(1, 1))
            (3): CA_Block(
              (se_module): Sequential(
                (0): AdaptiveAvgPool2d(output_size=1)
                (1): Conv2d(256, 16, kernel_size=(1, 1), stride=(1, 1))
                (2): ReLU(inplace=True)
                (3): Conv2d(16, 256, kernel_size=(1, 1), stride=(1, 1))
                (4): Sigmoid()
              )
            )
          )
        )
        (16): RCAB_Block(
          (rcab): Sequential(
            (0): Conv2d(256, 256, kernel_size=(3, 3), stride=(1, 1), padding=(1, 1))
            (1): ReLU(inplace=True)
            (2): Conv2d(256, 256, kernel_size=(3, 3), stride=(1, 1), padding=(1, 1))
            (3): CA_Block(
              (se_module): Sequential(
                (0): AdaptiveAvgPool2d(output_size=1)
                (1): Conv2d(256, 16, kernel_size=(1, 1), stride=(1, 1))
                (2): ReLU(inplace=True)
                (3): Conv2d(16, 256, kernel_size=(1, 1), stride=(1, 1))
                (4): Sigmoid()
              )
            )
          )
        )
        (17): RCAB_Block(
          (rcab): Sequential(
            (0): Conv2d(256, 256, kernel_size=(3, 3), stride=(1, 1), padding=(1, 1))
            (1): ReLU(inplace=True)
            (2): Conv2d(256, 256, kernel_size=(3, 3), stride=(1, 1), padding=(1, 1))
            (3): CA_Block(
              (se_module): Sequential(
                (0): AdaptiveAvgPool2d(output_size=1)
                (1): Conv2d(256, 16, kernel_size=(1, 1), stride=(1, 1))
                (2): ReLU(inplace=True)
                (3): Conv2d(16, 256, kernel_size=(1, 1), stride=(1, 1))
                (4): Sigmoid()
              )
            )
          )
        )
        (18): RCAB_Block(
          (rcab): Sequential(
            (0): Conv2d(256, 256, kernel_size=(3, 3), stride=(1, 1), padding=(1, 1))
            (1): ReLU(inplace=True)
            (2): Conv2d(256, 256, kernel_size=(3, 3), stride=(1, 1), padding=(1, 1))
            (3): CA_Block(
              (se_module): Sequential(
                (0): AdaptiveAvgPool2d(output_size=1)
                (1): Conv2d(256, 16, kernel_size=(1, 1), stride=(1, 1))
                (2): ReLU(inplace=True)
                (3): Conv2d(16, 256, kernel_size=(1, 1), stride=(1, 1))
                (4): Sigmoid()
              )
            )
          )
        )
        (19): RCAB_Block(
          (rcab): Sequential(
            (0): Conv2d(256, 256, kernel_size=(3, 3), stride=(1, 1), padding=(1, 1))
            (1): ReLU(inplace=True)
            (2): Conv2d(256, 256, kernel_size=(3, 3), stride=(1, 1), padding=(1, 1))
            (3): CA_Block(
              (se_module): Sequential(
                (0): AdaptiveAvgPool2d(output_size=1)
                (1): Conv2d(256, 16, kernel_size=(1, 1), stride=(1, 1))
                (2): ReLU(inplace=True)
                (3): Conv2d(16, 256, kernel_size=(1, 1), stride=(1, 1))
                (4): Sigmoid()
              )
            )
          )
        )
        (20): Conv2d(256, 256, kernel_size=(3, 3), stride=(1, 1), padding=(1, 1))
      )
    )
    (2): RG_Block(
      (rg_block): Sequential(
        (0): RCAB_Block(
          (rcab): Sequential(
            (0): Conv2d(256, 256, kernel_size=(3, 3), stride=(1, 1), padding=(1, 1))
            (1): ReLU(inplace=True)
            (2): Conv2d(256, 256, kernel_size=(3, 3), stride=(1, 1), padding=(1, 1))
            (3): CA_Block(
              (se_module): Sequential(
                (0): AdaptiveAvgPool2d(output_size=1)
                (1): Conv2d(256, 16, kernel_size=(1, 1), stride=(1, 1))
                (2): ReLU(inplace=True)
                (3): Conv2d(16, 256, kernel_size=(1, 1), stride=(1, 1))
                (4): Sigmoid()
              )
            )
          )
        )
        (1): RCAB_Block(
          (rcab): Sequential(
            (0): Conv2d(256, 256, kernel_size=(3, 3), stride=(1, 1), padding=(1, 1))
            (1): ReLU(inplace=True)
            (2): Conv2d(256, 256, kernel_size=(3, 3), stride=(1, 1), padding=(1, 1))
            (3): CA_Block(
              (se_module): Sequential(
                (0): AdaptiveAvgPool2d(output_size=1)
                (1): Conv2d(256, 16, kernel_size=(1, 1), stride=(1, 1))
                (2): ReLU(inplace=True)
                (3): Conv2d(16, 256, kernel_size=(1, 1), stride=(1, 1))
                (4): Sigmoid()
              )
            )
          )
        )
        (2): RCAB_Block(
          (rcab): Sequential(
            (0): Conv2d(256, 256, kernel_size=(3, 3), stride=(1, 1), padding=(1, 1))
            (1): ReLU(inplace=True)
            (2): Conv2d(256, 256, kernel_size=(3, 3), stride=(1, 1), padding=(1, 1))
            (3): CA_Block(
              (se_module): Sequential(
                (0): AdaptiveAvgPool2d(output_size=1)
                (1): Conv2d(256, 16, kernel_size=(1, 1), stride=(1, 1))
                (2): ReLU(inplace=True)
                (3): Conv2d(16, 256, kernel_size=(1, 1), stride=(1, 1))
                (4): Sigmoid()
              )
            )
          )
        )
        (3): RCAB_Block(
          (rcab): Sequential(
            (0): Conv2d(256, 256, kernel_size=(3, 3), stride=(1, 1), padding=(1, 1))
            (1): ReLU(inplace=True)
            (2): Conv2d(256, 256, kernel_size=(3, 3), stride=(1, 1), padding=(1, 1))
            (3): CA_Block(
              (se_module): Sequential(
                (0): AdaptiveAvgPool2d(output_size=1)
                (1): Conv2d(256, 16, kernel_size=(1, 1), stride=(1, 1))
                (2): ReLU(inplace=True)
                (3): Conv2d(16, 256, kernel_size=(1, 1), stride=(1, 1))
                (4): Sigmoid()
              )
            )
          )
        )
        (4): RCAB_Block(
          (rcab): Sequential(
            (0): Conv2d(256, 256, kernel_size=(3, 3), stride=(1, 1), padding=(1, 1))
            (1): ReLU(inplace=True)
            (2): Conv2d(256, 256, kernel_size=(3, 3), stride=(1, 1), padding=(1, 1))
            (3): CA_Block(
              (se_module): Sequential(
                (0): AdaptiveAvgPool2d(output_size=1)
                (1): Conv2d(256, 16, kernel_size=(1, 1), stride=(1, 1))
                (2): ReLU(inplace=True)
                (3): Conv2d(16, 256, kernel_size=(1, 1), stride=(1, 1))
                (4): Sigmoid()
              )
            )
          )
        )
        (5): RCAB_Block(
          (rcab): Sequential(
            (0): Conv2d(256, 256, kernel_size=(3, 3), stride=(1, 1), padding=(1, 1))
            (1): ReLU(inplace=True)
            (2): Conv2d(256, 256, kernel_size=(3, 3), stride=(1, 1), padding=(1, 1))
            (3): CA_Block(
              (se_module): Sequential(
                (0): AdaptiveAvgPool2d(output_size=1)
                (1): Conv2d(256, 16, kernel_size=(1, 1), stride=(1, 1))
                (2): ReLU(inplace=True)
                (3): Conv2d(16, 256, kernel_size=(1, 1), stride=(1, 1))
                (4): Sigmoid()
              )
            )
          )
        )
        (6): RCAB_Block(
          (rcab): Sequential(
            (0): Conv2d(256, 256, kernel_size=(3, 3), stride=(1, 1), padding=(1, 1))
            (1): ReLU(inplace=True)
            (2): Conv2d(256, 256, kernel_size=(3, 3), stride=(1, 1), padding=(1, 1))
            (3): CA_Block(
              (se_module): Sequential(
                (0): AdaptiveAvgPool2d(output_size=1)
                (1): Conv2d(256, 16, kernel_size=(1, 1), stride=(1, 1))
                (2): ReLU(inplace=True)
                (3): Conv2d(16, 256, kernel_size=(1, 1), stride=(1, 1))
                (4): Sigmoid()
              )
            )
          )
        )
        (7): RCAB_Block(
          (rcab): Sequential(
            (0): Conv2d(256, 256, kernel_size=(3, 3), stride=(1, 1), padding=(1, 1))
            (1): ReLU(inplace=True)
            (2): Conv2d(256, 256, kernel_size=(3, 3), stride=(1, 1), padding=(1, 1))
            (3): CA_Block(
              (se_module): Sequential(
                (0): AdaptiveAvgPool2d(output_size=1)
                (1): Conv2d(256, 16, kernel_size=(1, 1), stride=(1, 1))
                (2): ReLU(inplace=True)
                (3): Conv2d(16, 256, kernel_size=(1, 1), stride=(1, 1))
                (4): Sigmoid()
              )
            )
          )
        )
        (8): RCAB_Block(
          (rcab): Sequential(
            (0): Conv2d(256, 256, kernel_size=(3, 3), stride=(1, 1), padding=(1, 1))
            (1): ReLU(inplace=True)
            (2): Conv2d(256, 256, kernel_size=(3, 3), stride=(1, 1), padding=(1, 1))
            (3): CA_Block(
              (se_module): Sequential(
                (0): AdaptiveAvgPool2d(output_size=1)
                (1): Conv2d(256, 16, kernel_size=(1, 1), stride=(1, 1))
                (2): ReLU(inplace=True)
                (3): Conv2d(16, 256, kernel_size=(1, 1), stride=(1, 1))
                (4): Sigmoid()
              )
            )
          )
        )
        (9): RCAB_Block(
          (rcab): Sequential(
            (0): Conv2d(256, 256, kernel_size=(3, 3), stride=(1, 1), padding=(1, 1))
            (1): ReLU(inplace=True)
            (2): Conv2d(256, 256, kernel_size=(3, 3), stride=(1, 1), padding=(1, 1))
            (3): CA_Block(
              (se_module): Sequential(
                (0): AdaptiveAvgPool2d(output_size=1)
                (1): Conv2d(256, 16, kernel_size=(1, 1), stride=(1, 1))
                (2): ReLU(inplace=True)
                (3): Conv2d(16, 256, kernel_size=(1, 1), stride=(1, 1))
                (4): Sigmoid()
              )
            )
          )
        )
        (10): RCAB_Block(
          (rcab): Sequential(
            (0): Conv2d(256, 256, kernel_size=(3, 3), stride=(1, 1), padding=(1, 1))
            (1): ReLU(inplace=True)
            (2): Conv2d(256, 256, kernel_size=(3, 3), stride=(1, 1), padding=(1, 1))
            (3): CA_Block(
              (se_module): Sequential(
                (0): AdaptiveAvgPool2d(output_size=1)
                (1): Conv2d(256, 16, kernel_size=(1, 1), stride=(1, 1))
                (2): ReLU(inplace=True)
                (3): Conv2d(16, 256, kernel_size=(1, 1), stride=(1, 1))
                (4): Sigmoid()
              )
            )
          )
        )
        (11): RCAB_Block(
          (rcab): Sequential(
            (0): Conv2d(256, 256, kernel_size=(3, 3), stride=(1, 1), padding=(1, 1))
            (1): ReLU(inplace=True)
            (2): Conv2d(256, 256, kernel_size=(3, 3), stride=(1, 1), padding=(1, 1))
            (3): CA_Block(
              (se_module): Sequential(
                (0): AdaptiveAvgPool2d(output_size=1)
                (1): Conv2d(256, 16, kernel_size=(1, 1), stride=(1, 1))
                (2): ReLU(inplace=True)
                (3): Conv2d(16, 256, kernel_size=(1, 1), stride=(1, 1))
                (4): Sigmoid()
              )
            )
          )
        )
        (12): RCAB_Block(
          (rcab): Sequential(
            (0): Conv2d(256, 256, kernel_size=(3, 3), stride=(1, 1), padding=(1, 1))
            (1): ReLU(inplace=True)
            (2): Conv2d(256, 256, kernel_size=(3, 3), stride=(1, 1), padding=(1, 1))
            (3): CA_Block(
              (se_module): Sequential(
                (0): AdaptiveAvgPool2d(output_size=1)
                (1): Conv2d(256, 16, kernel_size=(1, 1), stride=(1, 1))
                (2): ReLU(inplace=True)
                (3): Conv2d(16, 256, kernel_size=(1, 1), stride=(1, 1))
                (4): Sigmoid()
              )
            )
          )
        )
        (13): RCAB_Block(
          (rcab): Sequential(
            (0): Conv2d(256, 256, kernel_size=(3, 3), stride=(1, 1), padding=(1, 1))
            (1): ReLU(inplace=True)
            (2): Conv2d(256, 256, kernel_size=(3, 3), stride=(1, 1), padding=(1, 1))
            (3): CA_Block(
              (se_module): Sequential(
                (0): AdaptiveAvgPool2d(output_size=1)
                (1): Conv2d(256, 16, kernel_size=(1, 1), stride=(1, 1))
                (2): ReLU(inplace=True)
                (3): Conv2d(16, 256, kernel_size=(1, 1), stride=(1, 1))
                (4): Sigmoid()
              )
            )
          )
        )
        (14): RCAB_Block(
          (rcab): Sequential(
            (0): Conv2d(256, 256, kernel_size=(3, 3), stride=(1, 1), padding=(1, 1))
            (1): ReLU(inplace=True)
            (2): Conv2d(256, 256, kernel_size=(3, 3), stride=(1, 1), padding=(1, 1))
            (3): CA_Block(
              (se_module): Sequential(
                (0): AdaptiveAvgPool2d(output_size=1)
                (1): Conv2d(256, 16, kernel_size=(1, 1), stride=(1, 1))
                (2): ReLU(inplace=True)
                (3): Conv2d(16, 256, kernel_size=(1, 1), stride=(1, 1))
                (4): Sigmoid()
              )
            )
          )
        )
        (15): RCAB_Block(
          (rcab): Sequential(
            (0): Conv2d(256, 256, kernel_size=(3, 3), stride=(1, 1), padding=(1, 1))
            (1): ReLU(inplace=True)
            (2): Conv2d(256, 256, kernel_size=(3, 3), stride=(1, 1), padding=(1, 1))
            (3): CA_Block(
              (se_module): Sequential(
                (0): AdaptiveAvgPool2d(output_size=1)
                (1): Conv2d(256, 16, kernel_size=(1, 1), stride=(1, 1))
                (2): ReLU(inplace=True)
                (3): Conv2d(16, 256, kernel_size=(1, 1), stride=(1, 1))
                (4): Sigmoid()
              )
            )
          )
        )
        (16): RCAB_Block(
          (rcab): Sequential(
            (0): Conv2d(256, 256, kernel_size=(3, 3), stride=(1, 1), padding=(1, 1))
            (1): ReLU(inplace=True)
            (2): Conv2d(256, 256, kernel_size=(3, 3), stride=(1, 1), padding=(1, 1))
            (3): CA_Block(
              (se_module): Sequential(
                (0): AdaptiveAvgPool2d(output_size=1)
                (1): Conv2d(256, 16, kernel_size=(1, 1), stride=(1, 1))
                (2): ReLU(inplace=True)
                (3): Conv2d(16, 256, kernel_size=(1, 1), stride=(1, 1))
                (4): Sigmoid()
              )
            )
          )
        )
        (17): RCAB_Block(
          (rcab): Sequential(
            (0): Conv2d(256, 256, kernel_size=(3, 3), stride=(1, 1), padding=(1, 1))
            (1): ReLU(inplace=True)
            (2): Conv2d(256, 256, kernel_size=(3, 3), stride=(1, 1), padding=(1, 1))
            (3): CA_Block(
              (se_module): Sequential(
                (0): AdaptiveAvgPool2d(output_size=1)
                (1): Conv2d(256, 16, kernel_size=(1, 1), stride=(1, 1))
                (2): ReLU(inplace=True)
                (3): Conv2d(16, 256, kernel_size=(1, 1), stride=(1, 1))
                (4): Sigmoid()
              )
            )
          )
        )
        (18): RCAB_Block(
          (rcab): Sequential(
            (0): Conv2d(256, 256, kernel_size=(3, 3), stride=(1, 1), padding=(1, 1))
            (1): ReLU(inplace=True)
            (2): Conv2d(256, 256, kernel_size=(3, 3), stride=(1, 1), padding=(1, 1))
            (3): CA_Block(
              (se_module): Sequential(
                (0): AdaptiveAvgPool2d(output_size=1)
                (1): Conv2d(256, 16, kernel_size=(1, 1), stride=(1, 1))
                (2): ReLU(inplace=True)
                (3): Conv2d(16, 256, kernel_size=(1, 1), stride=(1, 1))
                (4): Sigmoid()
              )
            )
          )
        )
        (19): RCAB_Block(
          (rcab): Sequential(
            (0): Conv2d(256, 256, kernel_size=(3, 3), stride=(1, 1), padding=(1, 1))
            (1): ReLU(inplace=True)
            (2): Conv2d(256, 256, kernel_size=(3, 3), stride=(1, 1), padding=(1, 1))
            (3): CA_Block(
              (se_module): Sequential(
                (0): AdaptiveAvgPool2d(output_size=1)
                (1): Conv2d(256, 16, kernel_size=(1, 1), stride=(1, 1))
                (2): ReLU(inplace=True)
                (3): Conv2d(16, 256, kernel_size=(1, 1), stride=(1, 1))
                (4): Sigmoid()
              )
            )
          )
        )
        (20): Conv2d(256, 256, kernel_size=(3, 3), stride=(1, 1), padding=(1, 1))
      )
    )
    (3): RG_Block(
      (rg_block): Sequential(
        (0): RCAB_Block(
          (rcab): Sequential(
            (0): Conv2d(256, 256, kernel_size=(3, 3), stride=(1, 1), padding=(1, 1))
            (1): ReLU(inplace=True)
            (2): Conv2d(256, 256, kernel_size=(3, 3), stride=(1, 1), padding=(1, 1))
            (3): CA_Block(
              (se_module): Sequential(
                (0): AdaptiveAvgPool2d(output_size=1)
                (1): Conv2d(256, 16, kernel_size=(1, 1), stride=(1, 1))
                (2): ReLU(inplace=True)
                (3): Conv2d(16, 256, kernel_size=(1, 1), stride=(1, 1))
                (4): Sigmoid()
              )
            )
          )
        )
        (1): RCAB_Block(
          (rcab): Sequential(
            (0): Conv2d(256, 256, kernel_size=(3, 3), stride=(1, 1), padding=(1, 1))
            (1): ReLU(inplace=True)
            (2): Conv2d(256, 256, kernel_size=(3, 3), stride=(1, 1), padding=(1, 1))
            (3): CA_Block(
              (se_module): Sequential(
                (0): AdaptiveAvgPool2d(output_size=1)
                (1): Conv2d(256, 16, kernel_size=(1, 1), stride=(1, 1))
                (2): ReLU(inplace=True)
                (3): Conv2d(16, 256, kernel_size=(1, 1), stride=(1, 1))
                (4): Sigmoid()
              )
            )
          )
        )
        (2): RCAB_Block(
          (rcab): Sequential(
            (0): Conv2d(256, 256, kernel_size=(3, 3), stride=(1, 1), padding=(1, 1))
            (1): ReLU(inplace=True)
            (2): Conv2d(256, 256, kernel_size=(3, 3), stride=(1, 1), padding=(1, 1))
            (3): CA_Block(
              (se_module): Sequential(
                (0): AdaptiveAvgPool2d(output_size=1)
                (1): Conv2d(256, 16, kernel_size=(1, 1), stride=(1, 1))
                (2): ReLU(inplace=True)
                (3): Conv2d(16, 256, kernel_size=(1, 1), stride=(1, 1))
                (4): Sigmoid()
              )
            )
          )
        )
        (3): RCAB_Block(
          (rcab): Sequential(
            (0): Conv2d(256, 256, kernel_size=(3, 3), stride=(1, 1), padding=(1, 1))
            (1): ReLU(inplace=True)
            (2): Conv2d(256, 256, kernel_size=(3, 3), stride=(1, 1), padding=(1, 1))
            (3): CA_Block(
              (se_module): Sequential(
                (0): AdaptiveAvgPool2d(output_size=1)
                (1): Conv2d(256, 16, kernel_size=(1, 1), stride=(1, 1))
                (2): ReLU(inplace=True)
                (3): Conv2d(16, 256, kernel_size=(1, 1), stride=(1, 1))
                (4): Sigmoid()
              )
            )
          )
        )
        (4): RCAB_Block(
          (rcab): Sequential(
            (0): Conv2d(256, 256, kernel_size=(3, 3), stride=(1, 1), padding=(1, 1))
            (1): ReLU(inplace=True)
            (2): Conv2d(256, 256, kernel_size=(3, 3), stride=(1, 1), padding=(1, 1))
            (3): CA_Block(
              (se_module): Sequential(
                (0): AdaptiveAvgPool2d(output_size=1)
                (1): Conv2d(256, 16, kernel_size=(1, 1), stride=(1, 1))
                (2): ReLU(inplace=True)
                (3): Conv2d(16, 256, kernel_size=(1, 1), stride=(1, 1))
                (4): Sigmoid()
              )
            )
          )
        )
        (5): RCAB_Block(
          (rcab): Sequential(
            (0): Conv2d(256, 256, kernel_size=(3, 3), stride=(1, 1), padding=(1, 1))
            (1): ReLU(inplace=True)
            (2): Conv2d(256, 256, kernel_size=(3, 3), stride=(1, 1), padding=(1, 1))
            (3): CA_Block(
              (se_module): Sequential(
                (0): AdaptiveAvgPool2d(output_size=1)
                (1): Conv2d(256, 16, kernel_size=(1, 1), stride=(1, 1))
                (2): ReLU(inplace=True)
                (3): Conv2d(16, 256, kernel_size=(1, 1), stride=(1, 1))
                (4): Sigmoid()
              )
            )
          )
        )
        (6): RCAB_Block(
          (rcab): Sequential(
            (0): Conv2d(256, 256, kernel_size=(3, 3), stride=(1, 1), padding=(1, 1))
            (1): ReLU(inplace=True)
            (2): Conv2d(256, 256, kernel_size=(3, 3), stride=(1, 1), padding=(1, 1))
            (3): CA_Block(
              (se_module): Sequential(
                (0): AdaptiveAvgPool2d(output_size=1)
                (1): Conv2d(256, 16, kernel_size=(1, 1), stride=(1, 1))
                (2): ReLU(inplace=True)
                (3): Conv2d(16, 256, kernel_size=(1, 1), stride=(1, 1))
                (4): Sigmoid()
              )
            )
          )
        )
        (7): RCAB_Block(
          (rcab): Sequential(
            (0): Conv2d(256, 256, kernel_size=(3, 3), stride=(1, 1), padding=(1, 1))
            (1): ReLU(inplace=True)
            (2): Conv2d(256, 256, kernel_size=(3, 3), stride=(1, 1), padding=(1, 1))
            (3): CA_Block(
              (se_module): Sequential(
                (0): AdaptiveAvgPool2d(output_size=1)
                (1): Conv2d(256, 16, kernel_size=(1, 1), stride=(1, 1))
                (2): ReLU(inplace=True)
                (3): Conv2d(16, 256, kernel_size=(1, 1), stride=(1, 1))
                (4): Sigmoid()
              )
            )
          )
        )
        (8): RCAB_Block(
          (rcab): Sequential(
            (0): Conv2d(256, 256, kernel_size=(3, 3), stride=(1, 1), padding=(1, 1))
            (1): ReLU(inplace=True)
            (2): Conv2d(256, 256, kernel_size=(3, 3), stride=(1, 1), padding=(1, 1))
            (3): CA_Block(
              (se_module): Sequential(
                (0): AdaptiveAvgPool2d(output_size=1)
                (1): Conv2d(256, 16, kernel_size=(1, 1), stride=(1, 1))
                (2): ReLU(inplace=True)
                (3): Conv2d(16, 256, kernel_size=(1, 1), stride=(1, 1))
                (4): Sigmoid()
              )
            )
          )
        )
        (9): RCAB_Block(
          (rcab): Sequential(
            (0): Conv2d(256, 256, kernel_size=(3, 3), stride=(1, 1), padding=(1, 1))
            (1): ReLU(inplace=True)
            (2): Conv2d(256, 256, kernel_size=(3, 3), stride=(1, 1), padding=(1, 1))
            (3): CA_Block(
              (se_module): Sequential(
                (0): AdaptiveAvgPool2d(output_size=1)
                (1): Conv2d(256, 16, kernel_size=(1, 1), stride=(1, 1))
                (2): ReLU(inplace=True)
                (3): Conv2d(16, 256, kernel_size=(1, 1), stride=(1, 1))
                (4): Sigmoid()
              )
            )
          )
        )
        (10): RCAB_Block(
          (rcab): Sequential(
            (0): Conv2d(256, 256, kernel_size=(3, 3), stride=(1, 1), padding=(1, 1))
            (1): ReLU(inplace=True)
            (2): Conv2d(256, 256, kernel_size=(3, 3), stride=(1, 1), padding=(1, 1))
            (3): CA_Block(
              (se_module): Sequential(
                (0): AdaptiveAvgPool2d(output_size=1)
                (1): Conv2d(256, 16, kernel_size=(1, 1), stride=(1, 1))
                (2): ReLU(inplace=True)
                (3): Conv2d(16, 256, kernel_size=(1, 1), stride=(1, 1))
                (4): Sigmoid()
              )
            )
          )
        )
        (11): RCAB_Block(
          (rcab): Sequential(
            (0): Conv2d(256, 256, kernel_size=(3, 3), stride=(1, 1), padding=(1, 1))
            (1): ReLU(inplace=True)
            (2): Conv2d(256, 256, kernel_size=(3, 3), stride=(1, 1), padding=(1, 1))
            (3): CA_Block(
              (se_module): Sequential(
                (0): AdaptiveAvgPool2d(output_size=1)
                (1): Conv2d(256, 16, kernel_size=(1, 1), stride=(1, 1))
                (2): ReLU(inplace=True)
                (3): Conv2d(16, 256, kernel_size=(1, 1), stride=(1, 1))
                (4): Sigmoid()
              )
            )
          )
        )
        (12): RCAB_Block(
          (rcab): Sequential(
            (0): Conv2d(256, 256, kernel_size=(3, 3), stride=(1, 1), padding=(1, 1))
            (1): ReLU(inplace=True)
            (2): Conv2d(256, 256, kernel_size=(3, 3), stride=(1, 1), padding=(1, 1))
            (3): CA_Block(
              (se_module): Sequential(
                (0): AdaptiveAvgPool2d(output_size=1)
                (1): Conv2d(256, 16, kernel_size=(1, 1), stride=(1, 1))
                (2): ReLU(inplace=True)
                (3): Conv2d(16, 256, kernel_size=(1, 1), stride=(1, 1))
                (4): Sigmoid()
              )
            )
          )
        )
        (13): RCAB_Block(
          (rcab): Sequential(
            (0): Conv2d(256, 256, kernel_size=(3, 3), stride=(1, 1), padding=(1, 1))
            (1): ReLU(inplace=True)
            (2): Conv2d(256, 256, kernel_size=(3, 3), stride=(1, 1), padding=(1, 1))
            (3): CA_Block(
              (se_module): Sequential(
                (0): AdaptiveAvgPool2d(output_size=1)
                (1): Conv2d(256, 16, kernel_size=(1, 1), stride=(1, 1))
                (2): ReLU(inplace=True)
                (3): Conv2d(16, 256, kernel_size=(1, 1), stride=(1, 1))
                (4): Sigmoid()
              )
            )
          )
        )
        (14): RCAB_Block(
          (rcab): Sequential(
            (0): Conv2d(256, 256, kernel_size=(3, 3), stride=(1, 1), padding=(1, 1))
            (1): ReLU(inplace=True)
            (2): Conv2d(256, 256, kernel_size=(3, 3), stride=(1, 1), padding=(1, 1))
            (3): CA_Block(
              (se_module): Sequential(
                (0): AdaptiveAvgPool2d(output_size=1)
                (1): Conv2d(256, 16, kernel_size=(1, 1), stride=(1, 1))
                (2): ReLU(inplace=True)
                (3): Conv2d(16, 256, kernel_size=(1, 1), stride=(1, 1))
                (4): Sigmoid()
              )
            )
          )
        )
        (15): RCAB_Block(
          (rcab): Sequential(
            (0): Conv2d(256, 256, kernel_size=(3, 3), stride=(1, 1), padding=(1, 1))
            (1): ReLU(inplace=True)
            (2): Conv2d(256, 256, kernel_size=(3, 3), stride=(1, 1), padding=(1, 1))
            (3): CA_Block(
              (se_module): Sequential(
                (0): AdaptiveAvgPool2d(output_size=1)
                (1): Conv2d(256, 16, kernel_size=(1, 1), stride=(1, 1))
                (2): ReLU(inplace=True)
                (3): Conv2d(16, 256, kernel_size=(1, 1), stride=(1, 1))
                (4): Sigmoid()
              )
            )
          )
        )
        (16): RCAB_Block(
          (rcab): Sequential(
            (0): Conv2d(256, 256, kernel_size=(3, 3), stride=(1, 1), padding=(1, 1))
            (1): ReLU(inplace=True)
            (2): Conv2d(256, 256, kernel_size=(3, 3), stride=(1, 1), padding=(1, 1))
            (3): CA_Block(
              (se_module): Sequential(
                (0): AdaptiveAvgPool2d(output_size=1)
                (1): Conv2d(256, 16, kernel_size=(1, 1), stride=(1, 1))
                (2): ReLU(inplace=True)
                (3): Conv2d(16, 256, kernel_size=(1, 1), stride=(1, 1))
                (4): Sigmoid()
              )
            )
          )
        )
        (17): RCAB_Block(
          (rcab): Sequential(
            (0): Conv2d(256, 256, kernel_size=(3, 3), stride=(1, 1), padding=(1, 1))
            (1): ReLU(inplace=True)
            (2): Conv2d(256, 256, kernel_size=(3, 3), stride=(1, 1), padding=(1, 1))
            (3): CA_Block(
              (se_module): Sequential(
                (0): AdaptiveAvgPool2d(output_size=1)
                (1): Conv2d(256, 16, kernel_size=(1, 1), stride=(1, 1))
                (2): ReLU(inplace=True)
                (3): Conv2d(16, 256, kernel_size=(1, 1), stride=(1, 1))
                (4): Sigmoid()
              )
            )
          )
        )
        (18): RCAB_Block(
          (rcab): Sequential(
            (0): Conv2d(256, 256, kernel_size=(3, 3), stride=(1, 1), padding=(1, 1))
            (1): ReLU(inplace=True)
            (2): Conv2d(256, 256, kernel_size=(3, 3), stride=(1, 1), padding=(1, 1))
            (3): CA_Block(
              (se_module): Sequential(
                (0): AdaptiveAvgPool2d(output_size=1)
                (1): Conv2d(256, 16, kernel_size=(1, 1), stride=(1, 1))
                (2): ReLU(inplace=True)
                (3): Conv2d(16, 256, kernel_size=(1, 1), stride=(1, 1))
                (4): Sigmoid()
              )
            )
          )
        )
        (19): RCAB_Block(
          (rcab): Sequential(
            (0): Conv2d(256, 256, kernel_size=(3, 3), stride=(1, 1), padding=(1, 1))
            (1): ReLU(inplace=True)
            (2): Conv2d(256, 256, kernel_size=(3, 3), stride=(1, 1), padding=(1, 1))
            (3): CA_Block(
              (se_module): Sequential(
                (0): AdaptiveAvgPool2d(output_size=1)
                (1): Conv2d(256, 16, kernel_size=(1, 1), stride=(1, 1))
                (2): ReLU(inplace=True)
                (3): Conv2d(16, 256, kernel_size=(1, 1), stride=(1, 1))
                (4): Sigmoid()
              )
            )
          )
        )
        (20): Conv2d(256, 256, kernel_size=(3, 3), stride=(1, 1), padding=(1, 1))
      )
    )
    (4): RG_Block(
      (rg_block): Sequential(
        (0): RCAB_Block(
          (rcab): Sequential(
            (0): Conv2d(256, 256, kernel_size=(3, 3), stride=(1, 1), padding=(1, 1))
            (1): ReLU(inplace=True)
            (2): Conv2d(256, 256, kernel_size=(3, 3), stride=(1, 1), padding=(1, 1))
            (3): CA_Block(
              (se_module): Sequential(
                (0): AdaptiveAvgPool2d(output_size=1)
                (1): Conv2d(256, 16, kernel_size=(1, 1), stride=(1, 1))
                (2): ReLU(inplace=True)
                (3): Conv2d(16, 256, kernel_size=(1, 1), stride=(1, 1))
                (4): Sigmoid()
              )
            )
          )
        )
        (1): RCAB_Block(
          (rcab): Sequential(
            (0): Conv2d(256, 256, kernel_size=(3, 3), stride=(1, 1), padding=(1, 1))
            (1): ReLU(inplace=True)
            (2): Conv2d(256, 256, kernel_size=(3, 3), stride=(1, 1), padding=(1, 1))
            (3): CA_Block(
              (se_module): Sequential(
                (0): AdaptiveAvgPool2d(output_size=1)
                (1): Conv2d(256, 16, kernel_size=(1, 1), stride=(1, 1))
                (2): ReLU(inplace=True)
                (3): Conv2d(16, 256, kernel_size=(1, 1), stride=(1, 1))
                (4): Sigmoid()
              )
            )
          )
        )
        (2): RCAB_Block(
          (rcab): Sequential(
            (0): Conv2d(256, 256, kernel_size=(3, 3), stride=(1, 1), padding=(1, 1))
            (1): ReLU(inplace=True)
            (2): Conv2d(256, 256, kernel_size=(3, 3), stride=(1, 1), padding=(1, 1))
            (3): CA_Block(
              (se_module): Sequential(
                (0): AdaptiveAvgPool2d(output_size=1)
                (1): Conv2d(256, 16, kernel_size=(1, 1), stride=(1, 1))
                (2): ReLU(inplace=True)
                (3): Conv2d(16, 256, kernel_size=(1, 1), stride=(1, 1))
                (4): Sigmoid()
              )
            )
          )
        )
        (3): RCAB_Block(
          (rcab): Sequential(
            (0): Conv2d(256, 256, kernel_size=(3, 3), stride=(1, 1), padding=(1, 1))
            (1): ReLU(inplace=True)
            (2): Conv2d(256, 256, kernel_size=(3, 3), stride=(1, 1), padding=(1, 1))
            (3): CA_Block(
              (se_module): Sequential(
                (0): AdaptiveAvgPool2d(output_size=1)
                (1): Conv2d(256, 16, kernel_size=(1, 1), stride=(1, 1))
                (2): ReLU(inplace=True)
                (3): Conv2d(16, 256, kernel_size=(1, 1), stride=(1, 1))
                (4): Sigmoid()
              )
            )
          )
        )
        (4): RCAB_Block(
          (rcab): Sequential(
            (0): Conv2d(256, 256, kernel_size=(3, 3), stride=(1, 1), padding=(1, 1))
            (1): ReLU(inplace=True)
            (2): Conv2d(256, 256, kernel_size=(3, 3), stride=(1, 1), padding=(1, 1))
            (3): CA_Block(
              (se_module): Sequential(
                (0): AdaptiveAvgPool2d(output_size=1)
                (1): Conv2d(256, 16, kernel_size=(1, 1), stride=(1, 1))
                (2): ReLU(inplace=True)
                (3): Conv2d(16, 256, kernel_size=(1, 1), stride=(1, 1))
                (4): Sigmoid()
              )
            )
          )
        )
        (5): RCAB_Block(
          (rcab): Sequential(
            (0): Conv2d(256, 256, kernel_size=(3, 3), stride=(1, 1), padding=(1, 1))
            (1): ReLU(inplace=True)
            (2): Conv2d(256, 256, kernel_size=(3, 3), stride=(1, 1), padding=(1, 1))
            (3): CA_Block(
              (se_module): Sequential(
                (0): AdaptiveAvgPool2d(output_size=1)
                (1): Conv2d(256, 16, kernel_size=(1, 1), stride=(1, 1))
                (2): ReLU(inplace=True)
                (3): Conv2d(16, 256, kernel_size=(1, 1), stride=(1, 1))
                (4): Sigmoid()
              )
            )
          )
        )
        (6): RCAB_Block(
          (rcab): Sequential(
            (0): Conv2d(256, 256, kernel_size=(3, 3), stride=(1, 1), padding=(1, 1))
            (1): ReLU(inplace=True)
            (2): Conv2d(256, 256, kernel_size=(3, 3), stride=(1, 1), padding=(1, 1))
            (3): CA_Block(
              (se_module): Sequential(
                (0): AdaptiveAvgPool2d(output_size=1)
                (1): Conv2d(256, 16, kernel_size=(1, 1), stride=(1, 1))
                (2): ReLU(inplace=True)
                (3): Conv2d(16, 256, kernel_size=(1, 1), stride=(1, 1))
                (4): Sigmoid()
              )
            )
          )
        )
        (7): RCAB_Block(
          (rcab): Sequential(
            (0): Conv2d(256, 256, kernel_size=(3, 3), stride=(1, 1), padding=(1, 1))
            (1): ReLU(inplace=True)
            (2): Conv2d(256, 256, kernel_size=(3, 3), stride=(1, 1), padding=(1, 1))
            (3): CA_Block(
              (se_module): Sequential(
                (0): AdaptiveAvgPool2d(output_size=1)
                (1): Conv2d(256, 16, kernel_size=(1, 1), stride=(1, 1))
                (2): ReLU(inplace=True)
                (3): Conv2d(16, 256, kernel_size=(1, 1), stride=(1, 1))
                (4): Sigmoid()
              )
            )
          )
        )
        (8): RCAB_Block(
          (rcab): Sequential(
            (0): Conv2d(256, 256, kernel_size=(3, 3), stride=(1, 1), padding=(1, 1))
            (1): ReLU(inplace=True)
            (2): Conv2d(256, 256, kernel_size=(3, 3), stride=(1, 1), padding=(1, 1))
            (3): CA_Block(
              (se_module): Sequential(
                (0): AdaptiveAvgPool2d(output_size=1)
                (1): Conv2d(256, 16, kernel_size=(1, 1), stride=(1, 1))
                (2): ReLU(inplace=True)
                (3): Conv2d(16, 256, kernel_size=(1, 1), stride=(1, 1))
                (4): Sigmoid()
              )
            )
          )
        )
        (9): RCAB_Block(
          (rcab): Sequential(
            (0): Conv2d(256, 256, kernel_size=(3, 3), stride=(1, 1), padding=(1, 1))
            (1): ReLU(inplace=True)
            (2): Conv2d(256, 256, kernel_size=(3, 3), stride=(1, 1), padding=(1, 1))
            (3): CA_Block(
              (se_module): Sequential(
                (0): AdaptiveAvgPool2d(output_size=1)
                (1): Conv2d(256, 16, kernel_size=(1, 1), stride=(1, 1))
                (2): ReLU(inplace=True)
                (3): Conv2d(16, 256, kernel_size=(1, 1), stride=(1, 1))
                (4): Sigmoid()
              )
            )
          )
        )
        (10): RCAB_Block(
          (rcab): Sequential(
            (0): Conv2d(256, 256, kernel_size=(3, 3), stride=(1, 1), padding=(1, 1))
            (1): ReLU(inplace=True)
            (2): Conv2d(256, 256, kernel_size=(3, 3), stride=(1, 1), padding=(1, 1))
            (3): CA_Block(
              (se_module): Sequential(
                (0): AdaptiveAvgPool2d(output_size=1)
                (1): Conv2d(256, 16, kernel_size=(1, 1), stride=(1, 1))
                (2): ReLU(inplace=True)
                (3): Conv2d(16, 256, kernel_size=(1, 1), stride=(1, 1))
                (4): Sigmoid()
              )
            )
          )
        )
        (11): RCAB_Block(
          (rcab): Sequential(
            (0): Conv2d(256, 256, kernel_size=(3, 3), stride=(1, 1), padding=(1, 1))
            (1): ReLU(inplace=True)
            (2): Conv2d(256, 256, kernel_size=(3, 3), stride=(1, 1), padding=(1, 1))
            (3): CA_Block(
              (se_module): Sequential(
                (0): AdaptiveAvgPool2d(output_size=1)
                (1): Conv2d(256, 16, kernel_size=(1, 1), stride=(1, 1))
                (2): ReLU(inplace=True)
                (3): Conv2d(16, 256, kernel_size=(1, 1), stride=(1, 1))
                (4): Sigmoid()
              )
            )
          )
        )
        (12): RCAB_Block(
          (rcab): Sequential(
            (0): Conv2d(256, 256, kernel_size=(3, 3), stride=(1, 1), padding=(1, 1))
            (1): ReLU(inplace=True)
            (2): Conv2d(256, 256, kernel_size=(3, 3), stride=(1, 1), padding=(1, 1))
            (3): CA_Block(
              (se_module): Sequential(
                (0): AdaptiveAvgPool2d(output_size=1)
                (1): Conv2d(256, 16, kernel_size=(1, 1), stride=(1, 1))
                (2): ReLU(inplace=True)
                (3): Conv2d(16, 256, kernel_size=(1, 1), stride=(1, 1))
                (4): Sigmoid()
              )
            )
          )
        )
        (13): RCAB_Block(
          (rcab): Sequential(
            (0): Conv2d(256, 256, kernel_size=(3, 3), stride=(1, 1), padding=(1, 1))
            (1): ReLU(inplace=True)
            (2): Conv2d(256, 256, kernel_size=(3, 3), stride=(1, 1), padding=(1, 1))
            (3): CA_Block(
              (se_module): Sequential(
                (0): AdaptiveAvgPool2d(output_size=1)
                (1): Conv2d(256, 16, kernel_size=(1, 1), stride=(1, 1))
                (2): ReLU(inplace=True)
                (3): Conv2d(16, 256, kernel_size=(1, 1), stride=(1, 1))
                (4): Sigmoid()
              )
            )
          )
        )
        (14): RCAB_Block(
          (rcab): Sequential(
            (0): Conv2d(256, 256, kernel_size=(3, 3), stride=(1, 1), padding=(1, 1))
            (1): ReLU(inplace=True)
            (2): Conv2d(256, 256, kernel_size=(3, 3), stride=(1, 1), padding=(1, 1))
            (3): CA_Block(
              (se_module): Sequential(
                (0): AdaptiveAvgPool2d(output_size=1)
                (1): Conv2d(256, 16, kernel_size=(1, 1), stride=(1, 1))
                (2): ReLU(inplace=True)
                (3): Conv2d(16, 256, kernel_size=(1, 1), stride=(1, 1))
                (4): Sigmoid()
              )
            )
          )
        )
        (15): RCAB_Block(
          (rcab): Sequential(
            (0): Conv2d(256, 256, kernel_size=(3, 3), stride=(1, 1), padding=(1, 1))
            (1): ReLU(inplace=True)
            (2): Conv2d(256, 256, kernel_size=(3, 3), stride=(1, 1), padding=(1, 1))
            (3): CA_Block(
              (se_module): Sequential(
                (0): AdaptiveAvgPool2d(output_size=1)
                (1): Conv2d(256, 16, kernel_size=(1, 1), stride=(1, 1))
                (2): ReLU(inplace=True)
                (3): Conv2d(16, 256, kernel_size=(1, 1), stride=(1, 1))
                (4): Sigmoid()
              )
            )
          )
        )
        (16): RCAB_Block(
          (rcab): Sequential(
            (0): Conv2d(256, 256, kernel_size=(3, 3), stride=(1, 1), padding=(1, 1))
            (1): ReLU(inplace=True)
            (2): Conv2d(256, 256, kernel_size=(3, 3), stride=(1, 1), padding=(1, 1))
            (3): CA_Block(
              (se_module): Sequential(
                (0): AdaptiveAvgPool2d(output_size=1)
                (1): Conv2d(256, 16, kernel_size=(1, 1), stride=(1, 1))
                (2): ReLU(inplace=True)
                (3): Conv2d(16, 256, kernel_size=(1, 1), stride=(1, 1))
                (4): Sigmoid()
              )
            )
          )
        )
        (17): RCAB_Block(
          (rcab): Sequential(
            (0): Conv2d(256, 256, kernel_size=(3, 3), stride=(1, 1), padding=(1, 1))
            (1): ReLU(inplace=True)
            (2): Conv2d(256, 256, kernel_size=(3, 3), stride=(1, 1), padding=(1, 1))
            (3): CA_Block(
              (se_module): Sequential(
                (0): AdaptiveAvgPool2d(output_size=1)
                (1): Conv2d(256, 16, kernel_size=(1, 1), stride=(1, 1))
                (2): ReLU(inplace=True)
                (3): Conv2d(16, 256, kernel_size=(1, 1), stride=(1, 1))
                (4): Sigmoid()
              )
            )
          )
        )
        (18): RCAB_Block(
          (rcab): Sequential(
            (0): Conv2d(256, 256, kernel_size=(3, 3), stride=(1, 1), padding=(1, 1))
            (1): ReLU(inplace=True)
            (2): Conv2d(256, 256, kernel_size=(3, 3), stride=(1, 1), padding=(1, 1))
            (3): CA_Block(
              (se_module): Sequential(
                (0): AdaptiveAvgPool2d(output_size=1)
                (1): Conv2d(256, 16, kernel_size=(1, 1), stride=(1, 1))
                (2): ReLU(inplace=True)
                (3): Conv2d(16, 256, kernel_size=(1, 1), stride=(1, 1))
                (4): Sigmoid()
              )
            )
          )
        )
        (19): RCAB_Block(
          (rcab): Sequential(
            (0): Conv2d(256, 256, kernel_size=(3, 3), stride=(1, 1), padding=(1, 1))
            (1): ReLU(inplace=True)
            (2): Conv2d(256, 256, kernel_size=(3, 3), stride=(1, 1), padding=(1, 1))
            (3): CA_Block(
              (se_module): Sequential(
                (0): AdaptiveAvgPool2d(output_size=1)
                (1): Conv2d(256, 16, kernel_size=(1, 1), stride=(1, 1))
                (2): ReLU(inplace=True)
                (3): Conv2d(16, 256, kernel_size=(1, 1), stride=(1, 1))
                (4): Sigmoid()
              )
            )
          )
        )
        (20): Conv2d(256, 256, kernel_size=(3, 3), stride=(1, 1), padding=(1, 1))
      )
    )
    (5): RG_Block(
      (rg_block): Sequential(
        (0): RCAB_Block(
          (rcab): Sequential(
            (0): Conv2d(256, 256, kernel_size=(3, 3), stride=(1, 1), padding=(1, 1))
            (1): ReLU(inplace=True)
            (2): Conv2d(256, 256, kernel_size=(3, 3), stride=(1, 1), padding=(1, 1))
            (3): CA_Block(
              (se_module): Sequential(
                (0): AdaptiveAvgPool2d(output_size=1)
                (1): Conv2d(256, 16, kernel_size=(1, 1), stride=(1, 1))
                (2): ReLU(inplace=True)
                (3): Conv2d(16, 256, kernel_size=(1, 1), stride=(1, 1))
                (4): Sigmoid()
              )
            )
          )
        )
        (1): RCAB_Block(
          (rcab): Sequential(
            (0): Conv2d(256, 256, kernel_size=(3, 3), stride=(1, 1), padding=(1, 1))
            (1): ReLU(inplace=True)
            (2): Conv2d(256, 256, kernel_size=(3, 3), stride=(1, 1), padding=(1, 1))
            (3): CA_Block(
              (se_module): Sequential(
                (0): AdaptiveAvgPool2d(output_size=1)
                (1): Conv2d(256, 16, kernel_size=(1, 1), stride=(1, 1))
                (2): ReLU(inplace=True)
                (3): Conv2d(16, 256, kernel_size=(1, 1), stride=(1, 1))
                (4): Sigmoid()
              )
            )
          )
        )
        (2): RCAB_Block(
          (rcab): Sequential(
            (0): Conv2d(256, 256, kernel_size=(3, 3), stride=(1, 1), padding=(1, 1))
            (1): ReLU(inplace=True)
            (2): Conv2d(256, 256, kernel_size=(3, 3), stride=(1, 1), padding=(1, 1))
            (3): CA_Block(
              (se_module): Sequential(
                (0): AdaptiveAvgPool2d(output_size=1)
                (1): Conv2d(256, 16, kernel_size=(1, 1), stride=(1, 1))
                (2): ReLU(inplace=True)
                (3): Conv2d(16, 256, kernel_size=(1, 1), stride=(1, 1))
                (4): Sigmoid()
              )
            )
          )
        )
        (3): RCAB_Block(
          (rcab): Sequential(
            (0): Conv2d(256, 256, kernel_size=(3, 3), stride=(1, 1), padding=(1, 1))
            (1): ReLU(inplace=True)
            (2): Conv2d(256, 256, kernel_size=(3, 3), stride=(1, 1), padding=(1, 1))
            (3): CA_Block(
              (se_module): Sequential(
                (0): AdaptiveAvgPool2d(output_size=1)
                (1): Conv2d(256, 16, kernel_size=(1, 1), stride=(1, 1))
                (2): ReLU(inplace=True)
                (3): Conv2d(16, 256, kernel_size=(1, 1), stride=(1, 1))
                (4): Sigmoid()
              )
            )
          )
        )
        (4): RCAB_Block(
          (rcab): Sequential(
            (0): Conv2d(256, 256, kernel_size=(3, 3), stride=(1, 1), padding=(1, 1))
            (1): ReLU(inplace=True)
            (2): Conv2d(256, 256, kernel_size=(3, 3), stride=(1, 1), padding=(1, 1))
            (3): CA_Block(
              (se_module): Sequential(
                (0): AdaptiveAvgPool2d(output_size=1)
                (1): Conv2d(256, 16, kernel_size=(1, 1), stride=(1, 1))
                (2): ReLU(inplace=True)
                (3): Conv2d(16, 256, kernel_size=(1, 1), stride=(1, 1))
                (4): Sigmoid()
              )
            )
          )
        )
        (5): RCAB_Block(
          (rcab): Sequential(
            (0): Conv2d(256, 256, kernel_size=(3, 3), stride=(1, 1), padding=(1, 1))
            (1): ReLU(inplace=True)
            (2): Conv2d(256, 256, kernel_size=(3, 3), stride=(1, 1), padding=(1, 1))
            (3): CA_Block(
              (se_module): Sequential(
                (0): AdaptiveAvgPool2d(output_size=1)
                (1): Conv2d(256, 16, kernel_size=(1, 1), stride=(1, 1))
                (2): ReLU(inplace=True)
                (3): Conv2d(16, 256, kernel_size=(1, 1), stride=(1, 1))
                (4): Sigmoid()
              )
            )
          )
        )
        (6): RCAB_Block(
          (rcab): Sequential(
            (0): Conv2d(256, 256, kernel_size=(3, 3), stride=(1, 1), padding=(1, 1))
            (1): ReLU(inplace=True)
            (2): Conv2d(256, 256, kernel_size=(3, 3), stride=(1, 1), padding=(1, 1))
            (3): CA_Block(
              (se_module): Sequential(
                (0): AdaptiveAvgPool2d(output_size=1)
                (1): Conv2d(256, 16, kernel_size=(1, 1), stride=(1, 1))
                (2): ReLU(inplace=True)
                (3): Conv2d(16, 256, kernel_size=(1, 1), stride=(1, 1))
                (4): Sigmoid()
              )
            )
          )
        )
        (7): RCAB_Block(
          (rcab): Sequential(
            (0): Conv2d(256, 256, kernel_size=(3, 3), stride=(1, 1), padding=(1, 1))
            (1): ReLU(inplace=True)
            (2): Conv2d(256, 256, kernel_size=(3, 3), stride=(1, 1), padding=(1, 1))
            (3): CA_Block(
              (se_module): Sequential(
                (0): AdaptiveAvgPool2d(output_size=1)
                (1): Conv2d(256, 16, kernel_size=(1, 1), stride=(1, 1))
                (2): ReLU(inplace=True)
                (3): Conv2d(16, 256, kernel_size=(1, 1), stride=(1, 1))
                (4): Sigmoid()
              )
            )
          )
        )
        (8): RCAB_Block(
          (rcab): Sequential(
            (0): Conv2d(256, 256, kernel_size=(3, 3), stride=(1, 1), padding=(1, 1))
            (1): ReLU(inplace=True)
            (2): Conv2d(256, 256, kernel_size=(3, 3), stride=(1, 1), padding=(1, 1))
            (3): CA_Block(
              (se_module): Sequential(
                (0): AdaptiveAvgPool2d(output_size=1)
                (1): Conv2d(256, 16, kernel_size=(1, 1), stride=(1, 1))
                (2): ReLU(inplace=True)
                (3): Conv2d(16, 256, kernel_size=(1, 1), stride=(1, 1))
                (4): Sigmoid()
              )
            )
          )
        )
        (9): RCAB_Block(
          (rcab): Sequential(
            (0): Conv2d(256, 256, kernel_size=(3, 3), stride=(1, 1), padding=(1, 1))
            (1): ReLU(inplace=True)
            (2): Conv2d(256, 256, kernel_size=(3, 3), stride=(1, 1), padding=(1, 1))
            (3): CA_Block(
              (se_module): Sequential(
                (0): AdaptiveAvgPool2d(output_size=1)
                (1): Conv2d(256, 16, kernel_size=(1, 1), stride=(1, 1))
                (2): ReLU(inplace=True)
                (3): Conv2d(16, 256, kernel_size=(1, 1), stride=(1, 1))
                (4): Sigmoid()
              )
            )
          )
        )
        (10): RCAB_Block(
          (rcab): Sequential(
            (0): Conv2d(256, 256, kernel_size=(3, 3), stride=(1, 1), padding=(1, 1))
            (1): ReLU(inplace=True)
            (2): Conv2d(256, 256, kernel_size=(3, 3), stride=(1, 1), padding=(1, 1))
            (3): CA_Block(
              (se_module): Sequential(
                (0): AdaptiveAvgPool2d(output_size=1)
                (1): Conv2d(256, 16, kernel_size=(1, 1), stride=(1, 1))
                (2): ReLU(inplace=True)
                (3): Conv2d(16, 256, kernel_size=(1, 1), stride=(1, 1))
                (4): Sigmoid()
              )
            )
          )
        )
        (11): RCAB_Block(
          (rcab): Sequential(
            (0): Conv2d(256, 256, kernel_size=(3, 3), stride=(1, 1), padding=(1, 1))
            (1): ReLU(inplace=True)
            (2): Conv2d(256, 256, kernel_size=(3, 3), stride=(1, 1), padding=(1, 1))
            (3): CA_Block(
              (se_module): Sequential(
                (0): AdaptiveAvgPool2d(output_size=1)
                (1): Conv2d(256, 16, kernel_size=(1, 1), stride=(1, 1))
                (2): ReLU(inplace=True)
                (3): Conv2d(16, 256, kernel_size=(1, 1), stride=(1, 1))
                (4): Sigmoid()
              )
            )
          )
        )
        (12): RCAB_Block(
          (rcab): Sequential(
            (0): Conv2d(256, 256, kernel_size=(3, 3), stride=(1, 1), padding=(1, 1))
            (1): ReLU(inplace=True)
            (2): Conv2d(256, 256, kernel_size=(3, 3), stride=(1, 1), padding=(1, 1))
            (3): CA_Block(
              (se_module): Sequential(
                (0): AdaptiveAvgPool2d(output_size=1)
                (1): Conv2d(256, 16, kernel_size=(1, 1), stride=(1, 1))
                (2): ReLU(inplace=True)
                (3): Conv2d(16, 256, kernel_size=(1, 1), stride=(1, 1))
                (4): Sigmoid()
              )
            )
          )
        )
        (13): RCAB_Block(
          (rcab): Sequential(
            (0): Conv2d(256, 256, kernel_size=(3, 3), stride=(1, 1), padding=(1, 1))
            (1): ReLU(inplace=True)
            (2): Conv2d(256, 256, kernel_size=(3, 3), stride=(1, 1), padding=(1, 1))
            (3): CA_Block(
              (se_module): Sequential(
                (0): AdaptiveAvgPool2d(output_size=1)
                (1): Conv2d(256, 16, kernel_size=(1, 1), stride=(1, 1))
                (2): ReLU(inplace=True)
                (3): Conv2d(16, 256, kernel_size=(1, 1), stride=(1, 1))
                (4): Sigmoid()
              )
            )
          )
        )
        (14): RCAB_Block(
          (rcab): Sequential(
            (0): Conv2d(256, 256, kernel_size=(3, 3), stride=(1, 1), padding=(1, 1))
            (1): ReLU(inplace=True)
            (2): Conv2d(256, 256, kernel_size=(3, 3), stride=(1, 1), padding=(1, 1))
            (3): CA_Block(
              (se_module): Sequential(
                (0): AdaptiveAvgPool2d(output_size=1)
                (1): Conv2d(256, 16, kernel_size=(1, 1), stride=(1, 1))
                (2): ReLU(inplace=True)
                (3): Conv2d(16, 256, kernel_size=(1, 1), stride=(1, 1))
                (4): Sigmoid()
              )
            )
          )
        )
        (15): RCAB_Block(
          (rcab): Sequential(
            (0): Conv2d(256, 256, kernel_size=(3, 3), stride=(1, 1), padding=(1, 1))
            (1): ReLU(inplace=True)
            (2): Conv2d(256, 256, kernel_size=(3, 3), stride=(1, 1), padding=(1, 1))
            (3): CA_Block(
              (se_module): Sequential(
                (0): AdaptiveAvgPool2d(output_size=1)
                (1): Conv2d(256, 16, kernel_size=(1, 1), stride=(1, 1))
                (2): ReLU(inplace=True)
                (3): Conv2d(16, 256, kernel_size=(1, 1), stride=(1, 1))
                (4): Sigmoid()
              )
            )
          )
        )
        (16): RCAB_Block(
          (rcab): Sequential(
            (0): Conv2d(256, 256, kernel_size=(3, 3), stride=(1, 1), padding=(1, 1))
            (1): ReLU(inplace=True)
            (2): Conv2d(256, 256, kernel_size=(3, 3), stride=(1, 1), padding=(1, 1))
            (3): CA_Block(
              (se_module): Sequential(
                (0): AdaptiveAvgPool2d(output_size=1)
                (1): Conv2d(256, 16, kernel_size=(1, 1), stride=(1, 1))
                (2): ReLU(inplace=True)
                (3): Conv2d(16, 256, kernel_size=(1, 1), stride=(1, 1))
                (4): Sigmoid()
              )
            )
          )
        )
        (17): RCAB_Block(
          (rcab): Sequential(
            (0): Conv2d(256, 256, kernel_size=(3, 3), stride=(1, 1), padding=(1, 1))
            (1): ReLU(inplace=True)
            (2): Conv2d(256, 256, kernel_size=(3, 3), stride=(1, 1), padding=(1, 1))
            (3): CA_Block(
              (se_module): Sequential(
                (0): AdaptiveAvgPool2d(output_size=1)
                (1): Conv2d(256, 16, kernel_size=(1, 1), stride=(1, 1))
                (2): ReLU(inplace=True)
                (3): Conv2d(16, 256, kernel_size=(1, 1), stride=(1, 1))
                (4): Sigmoid()
              )
            )
          )
        )
        (18): RCAB_Block(
          (rcab): Sequential(
            (0): Conv2d(256, 256, kernel_size=(3, 3), stride=(1, 1), padding=(1, 1))
            (1): ReLU(inplace=True)
            (2): Conv2d(256, 256, kernel_size=(3, 3), stride=(1, 1), padding=(1, 1))
            (3): CA_Block(
              (se_module): Sequential(
                (0): AdaptiveAvgPool2d(output_size=1)
                (1): Conv2d(256, 16, kernel_size=(1, 1), stride=(1, 1))
                (2): ReLU(inplace=True)
                (3): Conv2d(16, 256, kernel_size=(1, 1), stride=(1, 1))
                (4): Sigmoid()
              )
            )
          )
        )
        (19): RCAB_Block(
          (rcab): Sequential(
            (0): Conv2d(256, 256, kernel_size=(3, 3), stride=(1, 1), padding=(1, 1))
            (1): ReLU(inplace=True)
            (2): Conv2d(256, 256, kernel_size=(3, 3), stride=(1, 1), padding=(1, 1))
            (3): CA_Block(
              (se_module): Sequential(
                (0): AdaptiveAvgPool2d(output_size=1)
                (1): Conv2d(256, 16, kernel_size=(1, 1), stride=(1, 1))
                (2): ReLU(inplace=True)
                (3): Conv2d(16, 256, kernel_size=(1, 1), stride=(1, 1))
                (4): Sigmoid()
              )
            )
          )
        )
        (20): Conv2d(256, 256, kernel_size=(3, 3), stride=(1, 1), padding=(1, 1))
      )
    )
    (6): RG_Block(
      (rg_block): Sequential(
        (0): RCAB_Block(
          (rcab): Sequential(
            (0): Conv2d(256, 256, kernel_size=(3, 3), stride=(1, 1), padding=(1, 1))
            (1): ReLU(inplace=True)
            (2): Conv2d(256, 256, kernel_size=(3, 3), stride=(1, 1), padding=(1, 1))
            (3): CA_Block(
              (se_module): Sequential(
                (0): AdaptiveAvgPool2d(output_size=1)
                (1): Conv2d(256, 16, kernel_size=(1, 1), stride=(1, 1))
                (2): ReLU(inplace=True)
                (3): Conv2d(16, 256, kernel_size=(1, 1), stride=(1, 1))
                (4): Sigmoid()
              )
            )
          )
        )
        (1): RCAB_Block(
          (rcab): Sequential(
            (0): Conv2d(256, 256, kernel_size=(3, 3), stride=(1, 1), padding=(1, 1))
            (1): ReLU(inplace=True)
            (2): Conv2d(256, 256, kernel_size=(3, 3), stride=(1, 1), padding=(1, 1))
            (3): CA_Block(
              (se_module): Sequential(
                (0): AdaptiveAvgPool2d(output_size=1)
                (1): Conv2d(256, 16, kernel_size=(1, 1), stride=(1, 1))
                (2): ReLU(inplace=True)
                (3): Conv2d(16, 256, kernel_size=(1, 1), stride=(1, 1))
                (4): Sigmoid()
              )
            )
          )
        )
        (2): RCAB_Block(
          (rcab): Sequential(
            (0): Conv2d(256, 256, kernel_size=(3, 3), stride=(1, 1), padding=(1, 1))
            (1): ReLU(inplace=True)
            (2): Conv2d(256, 256, kernel_size=(3, 3), stride=(1, 1), padding=(1, 1))
            (3): CA_Block(
              (se_module): Sequential(
                (0): AdaptiveAvgPool2d(output_size=1)
                (1): Conv2d(256, 16, kernel_size=(1, 1), stride=(1, 1))
                (2): ReLU(inplace=True)
                (3): Conv2d(16, 256, kernel_size=(1, 1), stride=(1, 1))
                (4): Sigmoid()
              )
            )
          )
        )
        (3): RCAB_Block(
          (rcab): Sequential(
            (0): Conv2d(256, 256, kernel_size=(3, 3), stride=(1, 1), padding=(1, 1))
            (1): ReLU(inplace=True)
            (2): Conv2d(256, 256, kernel_size=(3, 3), stride=(1, 1), padding=(1, 1))
            (3): CA_Block(
              (se_module): Sequential(
                (0): AdaptiveAvgPool2d(output_size=1)
                (1): Conv2d(256, 16, kernel_size=(1, 1), stride=(1, 1))
                (2): ReLU(inplace=True)
                (3): Conv2d(16, 256, kernel_size=(1, 1), stride=(1, 1))
                (4): Sigmoid()
              )
            )
          )
        )
        (4): RCAB_Block(
          (rcab): Sequential(
            (0): Conv2d(256, 256, kernel_size=(3, 3), stride=(1, 1), padding=(1, 1))
            (1): ReLU(inplace=True)
            (2): Conv2d(256, 256, kernel_size=(3, 3), stride=(1, 1), padding=(1, 1))
            (3): CA_Block(
              (se_module): Sequential(
                (0): AdaptiveAvgPool2d(output_size=1)
                (1): Conv2d(256, 16, kernel_size=(1, 1), stride=(1, 1))
                (2): ReLU(inplace=True)
                (3): Conv2d(16, 256, kernel_size=(1, 1), stride=(1, 1))
                (4): Sigmoid()
              )
            )
          )
        )
        (5): RCAB_Block(
          (rcab): Sequential(
            (0): Conv2d(256, 256, kernel_size=(3, 3), stride=(1, 1), padding=(1, 1))
            (1): ReLU(inplace=True)
            (2): Conv2d(256, 256, kernel_size=(3, 3), stride=(1, 1), padding=(1, 1))
            (3): CA_Block(
              (se_module): Sequential(
                (0): AdaptiveAvgPool2d(output_size=1)
                (1): Conv2d(256, 16, kernel_size=(1, 1), stride=(1, 1))
                (2): ReLU(inplace=True)
                (3): Conv2d(16, 256, kernel_size=(1, 1), stride=(1, 1))
                (4): Sigmoid()
              )
            )
          )
        )
        (6): RCAB_Block(
          (rcab): Sequential(
            (0): Conv2d(256, 256, kernel_size=(3, 3), stride=(1, 1), padding=(1, 1))
            (1): ReLU(inplace=True)
            (2): Conv2d(256, 256, kernel_size=(3, 3), stride=(1, 1), padding=(1, 1))
            (3): CA_Block(
              (se_module): Sequential(
                (0): AdaptiveAvgPool2d(output_size=1)
                (1): Conv2d(256, 16, kernel_size=(1, 1), stride=(1, 1))
                (2): ReLU(inplace=True)
                (3): Conv2d(16, 256, kernel_size=(1, 1), stride=(1, 1))
                (4): Sigmoid()
              )
            )
          )
        )
        (7): RCAB_Block(
          (rcab): Sequential(
            (0): Conv2d(256, 256, kernel_size=(3, 3), stride=(1, 1), padding=(1, 1))
            (1): ReLU(inplace=True)
            (2): Conv2d(256, 256, kernel_size=(3, 3), stride=(1, 1), padding=(1, 1))
            (3): CA_Block(
              (se_module): Sequential(
                (0): AdaptiveAvgPool2d(output_size=1)
                (1): Conv2d(256, 16, kernel_size=(1, 1), stride=(1, 1))
                (2): ReLU(inplace=True)
                (3): Conv2d(16, 256, kernel_size=(1, 1), stride=(1, 1))
                (4): Sigmoid()
              )
            )
          )
        )
        (8): RCAB_Block(
          (rcab): Sequential(
            (0): Conv2d(256, 256, kernel_size=(3, 3), stride=(1, 1), padding=(1, 1))
            (1): ReLU(inplace=True)
            (2): Conv2d(256, 256, kernel_size=(3, 3), stride=(1, 1), padding=(1, 1))
            (3): CA_Block(
              (se_module): Sequential(
                (0): AdaptiveAvgPool2d(output_size=1)
                (1): Conv2d(256, 16, kernel_size=(1, 1), stride=(1, 1))
                (2): ReLU(inplace=True)
                (3): Conv2d(16, 256, kernel_size=(1, 1), stride=(1, 1))
                (4): Sigmoid()
              )
            )
          )
        )
        (9): RCAB_Block(
          (rcab): Sequential(
            (0): Conv2d(256, 256, kernel_size=(3, 3), stride=(1, 1), padding=(1, 1))
            (1): ReLU(inplace=True)
            (2): Conv2d(256, 256, kernel_size=(3, 3), stride=(1, 1), padding=(1, 1))
            (3): CA_Block(
              (se_module): Sequential(
                (0): AdaptiveAvgPool2d(output_size=1)
                (1): Conv2d(256, 16, kernel_size=(1, 1), stride=(1, 1))
                (2): ReLU(inplace=True)
                (3): Conv2d(16, 256, kernel_size=(1, 1), stride=(1, 1))
                (4): Sigmoid()
              )
            )
          )
        )
        (10): RCAB_Block(
          (rcab): Sequential(
            (0): Conv2d(256, 256, kernel_size=(3, 3), stride=(1, 1), padding=(1, 1))
            (1): ReLU(inplace=True)
            (2): Conv2d(256, 256, kernel_size=(3, 3), stride=(1, 1), padding=(1, 1))
            (3): CA_Block(
              (se_module): Sequential(
                (0): AdaptiveAvgPool2d(output_size=1)
                (1): Conv2d(256, 16, kernel_size=(1, 1), stride=(1, 1))
                (2): ReLU(inplace=True)
                (3): Conv2d(16, 256, kernel_size=(1, 1), stride=(1, 1))
                (4): Sigmoid()
              )
            )
          )
        )
        (11): RCAB_Block(
          (rcab): Sequential(
            (0): Conv2d(256, 256, kernel_size=(3, 3), stride=(1, 1), padding=(1, 1))
            (1): ReLU(inplace=True)
            (2): Conv2d(256, 256, kernel_size=(3, 3), stride=(1, 1), padding=(1, 1))
            (3): CA_Block(
              (se_module): Sequential(
                (0): AdaptiveAvgPool2d(output_size=1)
                (1): Conv2d(256, 16, kernel_size=(1, 1), stride=(1, 1))
                (2): ReLU(inplace=True)
                (3): Conv2d(16, 256, kernel_size=(1, 1), stride=(1, 1))
                (4): Sigmoid()
              )
            )
          )
        )
        (12): RCAB_Block(
          (rcab): Sequential(
            (0): Conv2d(256, 256, kernel_size=(3, 3), stride=(1, 1), padding=(1, 1))
            (1): ReLU(inplace=True)
            (2): Conv2d(256, 256, kernel_size=(3, 3), stride=(1, 1), padding=(1, 1))
            (3): CA_Block(
              (se_module): Sequential(
                (0): AdaptiveAvgPool2d(output_size=1)
                (1): Conv2d(256, 16, kernel_size=(1, 1), stride=(1, 1))
                (2): ReLU(inplace=True)
                (3): Conv2d(16, 256, kernel_size=(1, 1), stride=(1, 1))
                (4): Sigmoid()
              )
            )
          )
        )
        (13): RCAB_Block(
          (rcab): Sequential(
            (0): Conv2d(256, 256, kernel_size=(3, 3), stride=(1, 1), padding=(1, 1))
            (1): ReLU(inplace=True)
            (2): Conv2d(256, 256, kernel_size=(3, 3), stride=(1, 1), padding=(1, 1))
            (3): CA_Block(
              (se_module): Sequential(
                (0): AdaptiveAvgPool2d(output_size=1)
                (1): Conv2d(256, 16, kernel_size=(1, 1), stride=(1, 1))
                (2): ReLU(inplace=True)
                (3): Conv2d(16, 256, kernel_size=(1, 1), stride=(1, 1))
                (4): Sigmoid()
              )
            )
          )
        )
        (14): RCAB_Block(
          (rcab): Sequential(
            (0): Conv2d(256, 256, kernel_size=(3, 3), stride=(1, 1), padding=(1, 1))
            (1): ReLU(inplace=True)
            (2): Conv2d(256, 256, kernel_size=(3, 3), stride=(1, 1), padding=(1, 1))
            (3): CA_Block(
              (se_module): Sequential(
                (0): AdaptiveAvgPool2d(output_size=1)
                (1): Conv2d(256, 16, kernel_size=(1, 1), stride=(1, 1))
                (2): ReLU(inplace=True)
                (3): Conv2d(16, 256, kernel_size=(1, 1), stride=(1, 1))
                (4): Sigmoid()
              )
            )
          )
        )
        (15): RCAB_Block(
          (rcab): Sequential(
            (0): Conv2d(256, 256, kernel_size=(3, 3), stride=(1, 1), padding=(1, 1))
            (1): ReLU(inplace=True)
            (2): Conv2d(256, 256, kernel_size=(3, 3), stride=(1, 1), padding=(1, 1))
            (3): CA_Block(
              (se_module): Sequential(
                (0): AdaptiveAvgPool2d(output_size=1)
                (1): Conv2d(256, 16, kernel_size=(1, 1), stride=(1, 1))
                (2): ReLU(inplace=True)
                (3): Conv2d(16, 256, kernel_size=(1, 1), stride=(1, 1))
                (4): Sigmoid()
              )
            )
          )
        )
        (16): RCAB_Block(
          (rcab): Sequential(
            (0): Conv2d(256, 256, kernel_size=(3, 3), stride=(1, 1), padding=(1, 1))
            (1): ReLU(inplace=True)
            (2): Conv2d(256, 256, kernel_size=(3, 3), stride=(1, 1), padding=(1, 1))
            (3): CA_Block(
              (se_module): Sequential(
                (0): AdaptiveAvgPool2d(output_size=1)
                (1): Conv2d(256, 16, kernel_size=(1, 1), stride=(1, 1))
                (2): ReLU(inplace=True)
                (3): Conv2d(16, 256, kernel_size=(1, 1), stride=(1, 1))
                (4): Sigmoid()
              )
            )
          )
        )
        (17): RCAB_Block(
          (rcab): Sequential(
            (0): Conv2d(256, 256, kernel_size=(3, 3), stride=(1, 1), padding=(1, 1))
            (1): ReLU(inplace=True)
            (2): Conv2d(256, 256, kernel_size=(3, 3), stride=(1, 1), padding=(1, 1))
            (3): CA_Block(
              (se_module): Sequential(
                (0): AdaptiveAvgPool2d(output_size=1)
                (1): Conv2d(256, 16, kernel_size=(1, 1), stride=(1, 1))
                (2): ReLU(inplace=True)
                (3): Conv2d(16, 256, kernel_size=(1, 1), stride=(1, 1))
                (4): Sigmoid()
              )
            )
          )
        )
        (18): RCAB_Block(
          (rcab): Sequential(
            (0): Conv2d(256, 256, kernel_size=(3, 3), stride=(1, 1), padding=(1, 1))
            (1): ReLU(inplace=True)
            (2): Conv2d(256, 256, kernel_size=(3, 3), stride=(1, 1), padding=(1, 1))
            (3): CA_Block(
              (se_module): Sequential(
                (0): AdaptiveAvgPool2d(output_size=1)
                (1): Conv2d(256, 16, kernel_size=(1, 1), stride=(1, 1))
                (2): ReLU(inplace=True)
                (3): Conv2d(16, 256, kernel_size=(1, 1), stride=(1, 1))
                (4): Sigmoid()
              )
            )
          )
        )
        (19): RCAB_Block(
          (rcab): Sequential(
            (0): Conv2d(256, 256, kernel_size=(3, 3), stride=(1, 1), padding=(1, 1))
            (1): ReLU(inplace=True)
            (2): Conv2d(256, 256, kernel_size=(3, 3), stride=(1, 1), padding=(1, 1))
            (3): CA_Block(
              (se_module): Sequential(
                (0): AdaptiveAvgPool2d(output_size=1)
                (1): Conv2d(256, 16, kernel_size=(1, 1), stride=(1, 1))
                (2): ReLU(inplace=True)
                (3): Conv2d(16, 256, kernel_size=(1, 1), stride=(1, 1))
                (4): Sigmoid()
              )
            )
          )
        )
        (20): Conv2d(256, 256, kernel_size=(3, 3), stride=(1, 1), padding=(1, 1))
      )
    )
    (7): RG_Block(
      (rg_block): Sequential(
        (0): RCAB_Block(
          (rcab): Sequential(
            (0): Conv2d(256, 256, kernel_size=(3, 3), stride=(1, 1), padding=(1, 1))
            (1): ReLU(inplace=True)
            (2): Conv2d(256, 256, kernel_size=(3, 3), stride=(1, 1), padding=(1, 1))
            (3): CA_Block(
              (se_module): Sequential(
                (0): AdaptiveAvgPool2d(output_size=1)
                (1): Conv2d(256, 16, kernel_size=(1, 1), stride=(1, 1))
                (2): ReLU(inplace=True)
                (3): Conv2d(16, 256, kernel_size=(1, 1), stride=(1, 1))
                (4): Sigmoid()
              )
            )
          )
        )
        (1): RCAB_Block(
          (rcab): Sequential(
            (0): Conv2d(256, 256, kernel_size=(3, 3), stride=(1, 1), padding=(1, 1))
            (1): ReLU(inplace=True)
            (2): Conv2d(256, 256, kernel_size=(3, 3), stride=(1, 1), padding=(1, 1))
            (3): CA_Block(
              (se_module): Sequential(
                (0): AdaptiveAvgPool2d(output_size=1)
                (1): Conv2d(256, 16, kernel_size=(1, 1), stride=(1, 1))
                (2): ReLU(inplace=True)
                (3): Conv2d(16, 256, kernel_size=(1, 1), stride=(1, 1))
                (4): Sigmoid()
              )
            )
          )
        )
        (2): RCAB_Block(
          (rcab): Sequential(
            (0): Conv2d(256, 256, kernel_size=(3, 3), stride=(1, 1), padding=(1, 1))
            (1): ReLU(inplace=True)
            (2): Conv2d(256, 256, kernel_size=(3, 3), stride=(1, 1), padding=(1, 1))
            (3): CA_Block(
              (se_module): Sequential(
                (0): AdaptiveAvgPool2d(output_size=1)
                (1): Conv2d(256, 16, kernel_size=(1, 1), stride=(1, 1))
                (2): ReLU(inplace=True)
                (3): Conv2d(16, 256, kernel_size=(1, 1), stride=(1, 1))
                (4): Sigmoid()
              )
            )
          )
        )
        (3): RCAB_Block(
          (rcab): Sequential(
            (0): Conv2d(256, 256, kernel_size=(3, 3), stride=(1, 1), padding=(1, 1))
            (1): ReLU(inplace=True)
            (2): Conv2d(256, 256, kernel_size=(3, 3), stride=(1, 1), padding=(1, 1))
            (3): CA_Block(
              (se_module): Sequential(
                (0): AdaptiveAvgPool2d(output_size=1)
                (1): Conv2d(256, 16, kernel_size=(1, 1), stride=(1, 1))
                (2): ReLU(inplace=True)
                (3): Conv2d(16, 256, kernel_size=(1, 1), stride=(1, 1))
                (4): Sigmoid()
              )
            )
          )
        )
        (4): RCAB_Block(
          (rcab): Sequential(
            (0): Conv2d(256, 256, kernel_size=(3, 3), stride=(1, 1), padding=(1, 1))
            (1): ReLU(inplace=True)
            (2): Conv2d(256, 256, kernel_size=(3, 3), stride=(1, 1), padding=(1, 1))
            (3): CA_Block(
              (se_module): Sequential(
                (0): AdaptiveAvgPool2d(output_size=1)
                (1): Conv2d(256, 16, kernel_size=(1, 1), stride=(1, 1))
                (2): ReLU(inplace=True)
                (3): Conv2d(16, 256, kernel_size=(1, 1), stride=(1, 1))
                (4): Sigmoid()
              )
            )
          )
        )
        (5): RCAB_Block(
          (rcab): Sequential(
            (0): Conv2d(256, 256, kernel_size=(3, 3), stride=(1, 1), padding=(1, 1))
            (1): ReLU(inplace=True)
            (2): Conv2d(256, 256, kernel_size=(3, 3), stride=(1, 1), padding=(1, 1))
            (3): CA_Block(
              (se_module): Sequential(
                (0): AdaptiveAvgPool2d(output_size=1)
                (1): Conv2d(256, 16, kernel_size=(1, 1), stride=(1, 1))
                (2): ReLU(inplace=True)
                (3): Conv2d(16, 256, kernel_size=(1, 1), stride=(1, 1))
                (4): Sigmoid()
              )
            )
          )
        )
        (6): RCAB_Block(
          (rcab): Sequential(
            (0): Conv2d(256, 256, kernel_size=(3, 3), stride=(1, 1), padding=(1, 1))
            (1): ReLU(inplace=True)
            (2): Conv2d(256, 256, kernel_size=(3, 3), stride=(1, 1), padding=(1, 1))
            (3): CA_Block(
              (se_module): Sequential(
                (0): AdaptiveAvgPool2d(output_size=1)
                (1): Conv2d(256, 16, kernel_size=(1, 1), stride=(1, 1))
                (2): ReLU(inplace=True)
                (3): Conv2d(16, 256, kernel_size=(1, 1), stride=(1, 1))
                (4): Sigmoid()
              )
            )
          )
        )
        (7): RCAB_Block(
          (rcab): Sequential(
            (0): Conv2d(256, 256, kernel_size=(3, 3), stride=(1, 1), padding=(1, 1))
            (1): ReLU(inplace=True)
            (2): Conv2d(256, 256, kernel_size=(3, 3), stride=(1, 1), padding=(1, 1))
            (3): CA_Block(
              (se_module): Sequential(
                (0): AdaptiveAvgPool2d(output_size=1)
                (1): Conv2d(256, 16, kernel_size=(1, 1), stride=(1, 1))
                (2): ReLU(inplace=True)
                (3): Conv2d(16, 256, kernel_size=(1, 1), stride=(1, 1))
                (4): Sigmoid()
              )
            )
          )
        )
        (8): RCAB_Block(
          (rcab): Sequential(
            (0): Conv2d(256, 256, kernel_size=(3, 3), stride=(1, 1), padding=(1, 1))
            (1): ReLU(inplace=True)
            (2): Conv2d(256, 256, kernel_size=(3, 3), stride=(1, 1), padding=(1, 1))
            (3): CA_Block(
              (se_module): Sequential(
                (0): AdaptiveAvgPool2d(output_size=1)
                (1): Conv2d(256, 16, kernel_size=(1, 1), stride=(1, 1))
                (2): ReLU(inplace=True)
                (3): Conv2d(16, 256, kernel_size=(1, 1), stride=(1, 1))
                (4): Sigmoid()
              )
            )
          )
        )
        (9): RCAB_Block(
          (rcab): Sequential(
            (0): Conv2d(256, 256, kernel_size=(3, 3), stride=(1, 1), padding=(1, 1))
            (1): ReLU(inplace=True)
            (2): Conv2d(256, 256, kernel_size=(3, 3), stride=(1, 1), padding=(1, 1))
            (3): CA_Block(
              (se_module): Sequential(
                (0): AdaptiveAvgPool2d(output_size=1)
                (1): Conv2d(256, 16, kernel_size=(1, 1), stride=(1, 1))
                (2): ReLU(inplace=True)
                (3): Conv2d(16, 256, kernel_size=(1, 1), stride=(1, 1))
                (4): Sigmoid()
              )
            )
          )
        )
        (10): RCAB_Block(
          (rcab): Sequential(
            (0): Conv2d(256, 256, kernel_size=(3, 3), stride=(1, 1), padding=(1, 1))
            (1): ReLU(inplace=True)
            (2): Conv2d(256, 256, kernel_size=(3, 3), stride=(1, 1), padding=(1, 1))
            (3): CA_Block(
              (se_module): Sequential(
                (0): AdaptiveAvgPool2d(output_size=1)
                (1): Conv2d(256, 16, kernel_size=(1, 1), stride=(1, 1))
                (2): ReLU(inplace=True)
                (3): Conv2d(16, 256, kernel_size=(1, 1), stride=(1, 1))
                (4): Sigmoid()
              )
            )
          )
        )
        (11): RCAB_Block(
          (rcab): Sequential(
            (0): Conv2d(256, 256, kernel_size=(3, 3), stride=(1, 1), padding=(1, 1))
            (1): ReLU(inplace=True)
            (2): Conv2d(256, 256, kernel_size=(3, 3), stride=(1, 1), padding=(1, 1))
            (3): CA_Block(
              (se_module): Sequential(
                (0): AdaptiveAvgPool2d(output_size=1)
                (1): Conv2d(256, 16, kernel_size=(1, 1), stride=(1, 1))
                (2): ReLU(inplace=True)
                (3): Conv2d(16, 256, kernel_size=(1, 1), stride=(1, 1))
                (4): Sigmoid()
              )
            )
          )
        )
        (12): RCAB_Block(
          (rcab): Sequential(
            (0): Conv2d(256, 256, kernel_size=(3, 3), stride=(1, 1), padding=(1, 1))
            (1): ReLU(inplace=True)
            (2): Conv2d(256, 256, kernel_size=(3, 3), stride=(1, 1), padding=(1, 1))
            (3): CA_Block(
              (se_module): Sequential(
                (0): AdaptiveAvgPool2d(output_size=1)
                (1): Conv2d(256, 16, kernel_size=(1, 1), stride=(1, 1))
                (2): ReLU(inplace=True)
                (3): Conv2d(16, 256, kernel_size=(1, 1), stride=(1, 1))
                (4): Sigmoid()
              )
            )
          )
        )
        (13): RCAB_Block(
          (rcab): Sequential(
            (0): Conv2d(256, 256, kernel_size=(3, 3), stride=(1, 1), padding=(1, 1))
            (1): ReLU(inplace=True)
            (2): Conv2d(256, 256, kernel_size=(3, 3), stride=(1, 1), padding=(1, 1))
            (3): CA_Block(
              (se_module): Sequential(
                (0): AdaptiveAvgPool2d(output_size=1)
                (1): Conv2d(256, 16, kernel_size=(1, 1), stride=(1, 1))
                (2): ReLU(inplace=True)
                (3): Conv2d(16, 256, kernel_size=(1, 1), stride=(1, 1))
                (4): Sigmoid()
              )
            )
          )
        )
        (14): RCAB_Block(
          (rcab): Sequential(
            (0): Conv2d(256, 256, kernel_size=(3, 3), stride=(1, 1), padding=(1, 1))
            (1): ReLU(inplace=True)
            (2): Conv2d(256, 256, kernel_size=(3, 3), stride=(1, 1), padding=(1, 1))
            (3): CA_Block(
              (se_module): Sequential(
                (0): AdaptiveAvgPool2d(output_size=1)
                (1): Conv2d(256, 16, kernel_size=(1, 1), stride=(1, 1))
                (2): ReLU(inplace=True)
                (3): Conv2d(16, 256, kernel_size=(1, 1), stride=(1, 1))
                (4): Sigmoid()
              )
            )
          )
        )
        (15): RCAB_Block(
          (rcab): Sequential(
            (0): Conv2d(256, 256, kernel_size=(3, 3), stride=(1, 1), padding=(1, 1))
            (1): ReLU(inplace=True)
            (2): Conv2d(256, 256, kernel_size=(3, 3), stride=(1, 1), padding=(1, 1))
            (3): CA_Block(
              (se_module): Sequential(
                (0): AdaptiveAvgPool2d(output_size=1)
                (1): Conv2d(256, 16, kernel_size=(1, 1), stride=(1, 1))
                (2): ReLU(inplace=True)
                (3): Conv2d(16, 256, kernel_size=(1, 1), stride=(1, 1))
                (4): Sigmoid()
              )
            )
          )
        )
        (16): RCAB_Block(
          (rcab): Sequential(
            (0): Conv2d(256, 256, kernel_size=(3, 3), stride=(1, 1), padding=(1, 1))
            (1): ReLU(inplace=True)
            (2): Conv2d(256, 256, kernel_size=(3, 3), stride=(1, 1), padding=(1, 1))
            (3): CA_Block(
              (se_module): Sequential(
                (0): AdaptiveAvgPool2d(output_size=1)
                (1): Conv2d(256, 16, kernel_size=(1, 1), stride=(1, 1))
                (2): ReLU(inplace=True)
                (3): Conv2d(16, 256, kernel_size=(1, 1), stride=(1, 1))
                (4): Sigmoid()
              )
            )
          )
        )
        (17): RCAB_Block(
          (rcab): Sequential(
            (0): Conv2d(256, 256, kernel_size=(3, 3), stride=(1, 1), padding=(1, 1))
            (1): ReLU(inplace=True)
            (2): Conv2d(256, 256, kernel_size=(3, 3), stride=(1, 1), padding=(1, 1))
            (3): CA_Block(
              (se_module): Sequential(
                (0): AdaptiveAvgPool2d(output_size=1)
                (1): Conv2d(256, 16, kernel_size=(1, 1), stride=(1, 1))
                (2): ReLU(inplace=True)
                (3): Conv2d(16, 256, kernel_size=(1, 1), stride=(1, 1))
                (4): Sigmoid()
              )
            )
          )
        )
        (18): RCAB_Block(
          (rcab): Sequential(
            (0): Conv2d(256, 256, kernel_size=(3, 3), stride=(1, 1), padding=(1, 1))
            (1): ReLU(inplace=True)
            (2): Conv2d(256, 256, kernel_size=(3, 3), stride=(1, 1), padding=(1, 1))
            (3): CA_Block(
              (se_module): Sequential(
                (0): AdaptiveAvgPool2d(output_size=1)
                (1): Conv2d(256, 16, kernel_size=(1, 1), stride=(1, 1))
                (2): ReLU(inplace=True)
                (3): Conv2d(16, 256, kernel_size=(1, 1), stride=(1, 1))
                (4): Sigmoid()
              )
            )
          )
        )
        (19): RCAB_Block(
          (rcab): Sequential(
            (0): Conv2d(256, 256, kernel_size=(3, 3), stride=(1, 1), padding=(1, 1))
            (1): ReLU(inplace=True)
            (2): Conv2d(256, 256, kernel_size=(3, 3), stride=(1, 1), padding=(1, 1))
            (3): CA_Block(
              (se_module): Sequential(
                (0): AdaptiveAvgPool2d(output_size=1)
                (1): Conv2d(256, 16, kernel_size=(1, 1), stride=(1, 1))
                (2): ReLU(inplace=True)
                (3): Conv2d(16, 256, kernel_size=(1, 1), stride=(1, 1))
                (4): Sigmoid()
              )
            )
          )
        )
        (20): Conv2d(256, 256, kernel_size=(3, 3), stride=(1, 1), padding=(1, 1))
      )
    )
    (8): RG_Block(
      (rg_block): Sequential(
        (0): RCAB_Block(
          (rcab): Sequential(
            (0): Conv2d(256, 256, kernel_size=(3, 3), stride=(1, 1), padding=(1, 1))
            (1): ReLU(inplace=True)
            (2): Conv2d(256, 256, kernel_size=(3, 3), stride=(1, 1), padding=(1, 1))
            (3): CA_Block(
              (se_module): Sequential(
                (0): AdaptiveAvgPool2d(output_size=1)
                (1): Conv2d(256, 16, kernel_size=(1, 1), stride=(1, 1))
                (2): ReLU(inplace=True)
                (3): Conv2d(16, 256, kernel_size=(1, 1), stride=(1, 1))
                (4): Sigmoid()
              )
            )
          )
        )
        (1): RCAB_Block(
          (rcab): Sequential(
            (0): Conv2d(256, 256, kernel_size=(3, 3), stride=(1, 1), padding=(1, 1))
            (1): ReLU(inplace=True)
            (2): Conv2d(256, 256, kernel_size=(3, 3), stride=(1, 1), padding=(1, 1))
            (3): CA_Block(
              (se_module): Sequential(
                (0): AdaptiveAvgPool2d(output_size=1)
                (1): Conv2d(256, 16, kernel_size=(1, 1), stride=(1, 1))
                (2): ReLU(inplace=True)
                (3): Conv2d(16, 256, kernel_size=(1, 1), stride=(1, 1))
                (4): Sigmoid()
              )
            )
          )
        )
        (2): RCAB_Block(
          (rcab): Sequential(
            (0): Conv2d(256, 256, kernel_size=(3, 3), stride=(1, 1), padding=(1, 1))
            (1): ReLU(inplace=True)
            (2): Conv2d(256, 256, kernel_size=(3, 3), stride=(1, 1), padding=(1, 1))
            (3): CA_Block(
              (se_module): Sequential(
                (0): AdaptiveAvgPool2d(output_size=1)
                (1): Conv2d(256, 16, kernel_size=(1, 1), stride=(1, 1))
                (2): ReLU(inplace=True)
                (3): Conv2d(16, 256, kernel_size=(1, 1), stride=(1, 1))
                (4): Sigmoid()
              )
            )
          )
        )
        (3): RCAB_Block(
          (rcab): Sequential(
            (0): Conv2d(256, 256, kernel_size=(3, 3), stride=(1, 1), padding=(1, 1))
            (1): ReLU(inplace=True)
            (2): Conv2d(256, 256, kernel_size=(3, 3), stride=(1, 1), padding=(1, 1))
            (3): CA_Block(
              (se_module): Sequential(
                (0): AdaptiveAvgPool2d(output_size=1)
                (1): Conv2d(256, 16, kernel_size=(1, 1), stride=(1, 1))
                (2): ReLU(inplace=True)
                (3): Conv2d(16, 256, kernel_size=(1, 1), stride=(1, 1))
                (4): Sigmoid()
              )
            )
          )
        )
        (4): RCAB_Block(
          (rcab): Sequential(
            (0): Conv2d(256, 256, kernel_size=(3, 3), stride=(1, 1), padding=(1, 1))
            (1): ReLU(inplace=True)
            (2): Conv2d(256, 256, kernel_size=(3, 3), stride=(1, 1), padding=(1, 1))
            (3): CA_Block(
              (se_module): Sequential(
                (0): AdaptiveAvgPool2d(output_size=1)
                (1): Conv2d(256, 16, kernel_size=(1, 1), stride=(1, 1))
                (2): ReLU(inplace=True)
                (3): Conv2d(16, 256, kernel_size=(1, 1), stride=(1, 1))
                (4): Sigmoid()
              )
            )
          )
        )
        (5): RCAB_Block(
          (rcab): Sequential(
            (0): Conv2d(256, 256, kernel_size=(3, 3), stride=(1, 1), padding=(1, 1))
            (1): ReLU(inplace=True)
            (2): Conv2d(256, 256, kernel_size=(3, 3), stride=(1, 1), padding=(1, 1))
            (3): CA_Block(
              (se_module): Sequential(
                (0): AdaptiveAvgPool2d(output_size=1)
                (1): Conv2d(256, 16, kernel_size=(1, 1), stride=(1, 1))
                (2): ReLU(inplace=True)
                (3): Conv2d(16, 256, kernel_size=(1, 1), stride=(1, 1))
                (4): Sigmoid()
              )
            )
          )
        )
        (6): RCAB_Block(
          (rcab): Sequential(
            (0): Conv2d(256, 256, kernel_size=(3, 3), stride=(1, 1), padding=(1, 1))
            (1): ReLU(inplace=True)
            (2): Conv2d(256, 256, kernel_size=(3, 3), stride=(1, 1), padding=(1, 1))
            (3): CA_Block(
              (se_module): Sequential(
                (0): AdaptiveAvgPool2d(output_size=1)
                (1): Conv2d(256, 16, kernel_size=(1, 1), stride=(1, 1))
                (2): ReLU(inplace=True)
                (3): Conv2d(16, 256, kernel_size=(1, 1), stride=(1, 1))
                (4): Sigmoid()
              )
            )
          )
        )
        (7): RCAB_Block(
          (rcab): Sequential(
            (0): Conv2d(256, 256, kernel_size=(3, 3), stride=(1, 1), padding=(1, 1))
            (1): ReLU(inplace=True)
            (2): Conv2d(256, 256, kernel_size=(3, 3), stride=(1, 1), padding=(1, 1))
            (3): CA_Block(
              (se_module): Sequential(
                (0): AdaptiveAvgPool2d(output_size=1)
                (1): Conv2d(256, 16, kernel_size=(1, 1), stride=(1, 1))
                (2): ReLU(inplace=True)
                (3): Conv2d(16, 256, kernel_size=(1, 1), stride=(1, 1))
                (4): Sigmoid()
              )
            )
          )
        )
        (8): RCAB_Block(
          (rcab): Sequential(
            (0): Conv2d(256, 256, kernel_size=(3, 3), stride=(1, 1), padding=(1, 1))
            (1): ReLU(inplace=True)
            (2): Conv2d(256, 256, kernel_size=(3, 3), stride=(1, 1), padding=(1, 1))
            (3): CA_Block(
              (se_module): Sequential(
                (0): AdaptiveAvgPool2d(output_size=1)
                (1): Conv2d(256, 16, kernel_size=(1, 1), stride=(1, 1))
                (2): ReLU(inplace=True)
                (3): Conv2d(16, 256, kernel_size=(1, 1), stride=(1, 1))
                (4): Sigmoid()
              )
            )
          )
        )
        (9): RCAB_Block(
          (rcab): Sequential(
            (0): Conv2d(256, 256, kernel_size=(3, 3), stride=(1, 1), padding=(1, 1))
            (1): ReLU(inplace=True)
            (2): Conv2d(256, 256, kernel_size=(3, 3), stride=(1, 1), padding=(1, 1))
            (3): CA_Block(
              (se_module): Sequential(
                (0): AdaptiveAvgPool2d(output_size=1)
                (1): Conv2d(256, 16, kernel_size=(1, 1), stride=(1, 1))
                (2): ReLU(inplace=True)
                (3): Conv2d(16, 256, kernel_size=(1, 1), stride=(1, 1))
                (4): Sigmoid()
              )
            )
          )
        )
        (10): RCAB_Block(
          (rcab): Sequential(
            (0): Conv2d(256, 256, kernel_size=(3, 3), stride=(1, 1), padding=(1, 1))
            (1): ReLU(inplace=True)
            (2): Conv2d(256, 256, kernel_size=(3, 3), stride=(1, 1), padding=(1, 1))
            (3): CA_Block(
              (se_module): Sequential(
                (0): AdaptiveAvgPool2d(output_size=1)
                (1): Conv2d(256, 16, kernel_size=(1, 1), stride=(1, 1))
                (2): ReLU(inplace=True)
                (3): Conv2d(16, 256, kernel_size=(1, 1), stride=(1, 1))
                (4): Sigmoid()
              )
            )
          )
        )
        (11): RCAB_Block(
          (rcab): Sequential(
            (0): Conv2d(256, 256, kernel_size=(3, 3), stride=(1, 1), padding=(1, 1))
            (1): ReLU(inplace=True)
            (2): Conv2d(256, 256, kernel_size=(3, 3), stride=(1, 1), padding=(1, 1))
            (3): CA_Block(
              (se_module): Sequential(
                (0): AdaptiveAvgPool2d(output_size=1)
                (1): Conv2d(256, 16, kernel_size=(1, 1), stride=(1, 1))
                (2): ReLU(inplace=True)
                (3): Conv2d(16, 256, kernel_size=(1, 1), stride=(1, 1))
                (4): Sigmoid()
              )
            )
          )
        )
        (12): RCAB_Block(
          (rcab): Sequential(
            (0): Conv2d(256, 256, kernel_size=(3, 3), stride=(1, 1), padding=(1, 1))
            (1): ReLU(inplace=True)
            (2): Conv2d(256, 256, kernel_size=(3, 3), stride=(1, 1), padding=(1, 1))
            (3): CA_Block(
              (se_module): Sequential(
                (0): AdaptiveAvgPool2d(output_size=1)
                (1): Conv2d(256, 16, kernel_size=(1, 1), stride=(1, 1))
                (2): ReLU(inplace=True)
                (3): Conv2d(16, 256, kernel_size=(1, 1), stride=(1, 1))
                (4): Sigmoid()
              )
            )
          )
        )
        (13): RCAB_Block(
          (rcab): Sequential(
            (0): Conv2d(256, 256, kernel_size=(3, 3), stride=(1, 1), padding=(1, 1))
            (1): ReLU(inplace=True)
            (2): Conv2d(256, 256, kernel_size=(3, 3), stride=(1, 1), padding=(1, 1))
            (3): CA_Block(
              (se_module): Sequential(
                (0): AdaptiveAvgPool2d(output_size=1)
                (1): Conv2d(256, 16, kernel_size=(1, 1), stride=(1, 1))
                (2): ReLU(inplace=True)
                (3): Conv2d(16, 256, kernel_size=(1, 1), stride=(1, 1))
                (4): Sigmoid()
              )
            )
          )
        )
        (14): RCAB_Block(
          (rcab): Sequential(
            (0): Conv2d(256, 256, kernel_size=(3, 3), stride=(1, 1), padding=(1, 1))
            (1): ReLU(inplace=True)
            (2): Conv2d(256, 256, kernel_size=(3, 3), stride=(1, 1), padding=(1, 1))
            (3): CA_Block(
              (se_module): Sequential(
                (0): AdaptiveAvgPool2d(output_size=1)
                (1): Conv2d(256, 16, kernel_size=(1, 1), stride=(1, 1))
                (2): ReLU(inplace=True)
                (3): Conv2d(16, 256, kernel_size=(1, 1), stride=(1, 1))
                (4): Sigmoid()
              )
            )
          )
        )
        (15): RCAB_Block(
          (rcab): Sequential(
            (0): Conv2d(256, 256, kernel_size=(3, 3), stride=(1, 1), padding=(1, 1))
            (1): ReLU(inplace=True)
            (2): Conv2d(256, 256, kernel_size=(3, 3), stride=(1, 1), padding=(1, 1))
            (3): CA_Block(
              (se_module): Sequential(
                (0): AdaptiveAvgPool2d(output_size=1)
                (1): Conv2d(256, 16, kernel_size=(1, 1), stride=(1, 1))
                (2): ReLU(inplace=True)
                (3): Conv2d(16, 256, kernel_size=(1, 1), stride=(1, 1))
                (4): Sigmoid()
              )
            )
          )
        )
        (16): RCAB_Block(
          (rcab): Sequential(
            (0): Conv2d(256, 256, kernel_size=(3, 3), stride=(1, 1), padding=(1, 1))
            (1): ReLU(inplace=True)
            (2): Conv2d(256, 256, kernel_size=(3, 3), stride=(1, 1), padding=(1, 1))
            (3): CA_Block(
              (se_module): Sequential(
                (0): AdaptiveAvgPool2d(output_size=1)
                (1): Conv2d(256, 16, kernel_size=(1, 1), stride=(1, 1))
                (2): ReLU(inplace=True)
                (3): Conv2d(16, 256, kernel_size=(1, 1), stride=(1, 1))
                (4): Sigmoid()
              )
            )
          )
        )
        (17): RCAB_Block(
          (rcab): Sequential(
            (0): Conv2d(256, 256, kernel_size=(3, 3), stride=(1, 1), padding=(1, 1))
            (1): ReLU(inplace=True)
            (2): Conv2d(256, 256, kernel_size=(3, 3), stride=(1, 1), padding=(1, 1))
            (3): CA_Block(
              (se_module): Sequential(
                (0): AdaptiveAvgPool2d(output_size=1)
                (1): Conv2d(256, 16, kernel_size=(1, 1), stride=(1, 1))
                (2): ReLU(inplace=True)
                (3): Conv2d(16, 256, kernel_size=(1, 1), stride=(1, 1))
                (4): Sigmoid()
              )
            )
          )
        )
        (18): RCAB_Block(
          (rcab): Sequential(
            (0): Conv2d(256, 256, kernel_size=(3, 3), stride=(1, 1), padding=(1, 1))
            (1): ReLU(inplace=True)
            (2): Conv2d(256, 256, kernel_size=(3, 3), stride=(1, 1), padding=(1, 1))
            (3): CA_Block(
              (se_module): Sequential(
                (0): AdaptiveAvgPool2d(output_size=1)
                (1): Conv2d(256, 16, kernel_size=(1, 1), stride=(1, 1))
                (2): ReLU(inplace=True)
                (3): Conv2d(16, 256, kernel_size=(1, 1), stride=(1, 1))
                (4): Sigmoid()
              )
            )
          )
        )
        (19): RCAB_Block(
          (rcab): Sequential(
            (0): Conv2d(256, 256, kernel_size=(3, 3), stride=(1, 1), padding=(1, 1))
            (1): ReLU(inplace=True)
            (2): Conv2d(256, 256, kernel_size=(3, 3), stride=(1, 1), padding=(1, 1))
            (3): CA_Block(
              (se_module): Sequential(
                (0): AdaptiveAvgPool2d(output_size=1)
                (1): Conv2d(256, 16, kernel_size=(1, 1), stride=(1, 1))
                (2): ReLU(inplace=True)
                (3): Conv2d(16, 256, kernel_size=(1, 1), stride=(1, 1))
                (4): Sigmoid()
              )
            )
          )
        )
        (20): Conv2d(256, 256, kernel_size=(3, 3), stride=(1, 1), padding=(1, 1))
      )
    )
    (9): RG_Block(
      (rg_block): Sequential(
        (0): RCAB_Block(
          (rcab): Sequential(
            (0): Conv2d(256, 256, kernel_size=(3, 3), stride=(1, 1), padding=(1, 1))
            (1): ReLU(inplace=True)
            (2): Conv2d(256, 256, kernel_size=(3, 3), stride=(1, 1), padding=(1, 1))
            (3): CA_Block(
              (se_module): Sequential(
                (0): AdaptiveAvgPool2d(output_size=1)
                (1): Conv2d(256, 16, kernel_size=(1, 1), stride=(1, 1))
                (2): ReLU(inplace=True)
                (3): Conv2d(16, 256, kernel_size=(1, 1), stride=(1, 1))
                (4): Sigmoid()
              )
            )
          )
        )
        (1): RCAB_Block(
          (rcab): Sequential(
            (0): Conv2d(256, 256, kernel_size=(3, 3), stride=(1, 1), padding=(1, 1))
            (1): ReLU(inplace=True)
            (2): Conv2d(256, 256, kernel_size=(3, 3), stride=(1, 1), padding=(1, 1))
            (3): CA_Block(
              (se_module): Sequential(
                (0): AdaptiveAvgPool2d(output_size=1)
                (1): Conv2d(256, 16, kernel_size=(1, 1), stride=(1, 1))
                (2): ReLU(inplace=True)
                (3): Conv2d(16, 256, kernel_size=(1, 1), stride=(1, 1))
                (4): Sigmoid()
              )
            )
          )
        )
        (2): RCAB_Block(
          (rcab): Sequential(
            (0): Conv2d(256, 256, kernel_size=(3, 3), stride=(1, 1), padding=(1, 1))
            (1): ReLU(inplace=True)
            (2): Conv2d(256, 256, kernel_size=(3, 3), stride=(1, 1), padding=(1, 1))
            (3): CA_Block(
              (se_module): Sequential(
                (0): AdaptiveAvgPool2d(output_size=1)
                (1): Conv2d(256, 16, kernel_size=(1, 1), stride=(1, 1))
                (2): ReLU(inplace=True)
                (3): Conv2d(16, 256, kernel_size=(1, 1), stride=(1, 1))
                (4): Sigmoid()
              )
            )
          )
        )
        (3): RCAB_Block(
          (rcab): Sequential(
            (0): Conv2d(256, 256, kernel_size=(3, 3), stride=(1, 1), padding=(1, 1))
            (1): ReLU(inplace=True)
            (2): Conv2d(256, 256, kernel_size=(3, 3), stride=(1, 1), padding=(1, 1))
            (3): CA_Block(
              (se_module): Sequential(
                (0): AdaptiveAvgPool2d(output_size=1)
                (1): Conv2d(256, 16, kernel_size=(1, 1), stride=(1, 1))
                (2): ReLU(inplace=True)
                (3): Conv2d(16, 256, kernel_size=(1, 1), stride=(1, 1))
                (4): Sigmoid()
              )
            )
          )
        )
        (4): RCAB_Block(
          (rcab): Sequential(
            (0): Conv2d(256, 256, kernel_size=(3, 3), stride=(1, 1), padding=(1, 1))
            (1): ReLU(inplace=True)
            (2): Conv2d(256, 256, kernel_size=(3, 3), stride=(1, 1), padding=(1, 1))
            (3): CA_Block(
              (se_module): Sequential(
                (0): AdaptiveAvgPool2d(output_size=1)
                (1): Conv2d(256, 16, kernel_size=(1, 1), stride=(1, 1))
                (2): ReLU(inplace=True)
                (3): Conv2d(16, 256, kernel_size=(1, 1), stride=(1, 1))
                (4): Sigmoid()
              )
            )
          )
        )
        (5): RCAB_Block(
          (rcab): Sequential(
            (0): Conv2d(256, 256, kernel_size=(3, 3), stride=(1, 1), padding=(1, 1))
            (1): ReLU(inplace=True)
            (2): Conv2d(256, 256, kernel_size=(3, 3), stride=(1, 1), padding=(1, 1))
            (3): CA_Block(
              (se_module): Sequential(
                (0): AdaptiveAvgPool2d(output_size=1)
                (1): Conv2d(256, 16, kernel_size=(1, 1), stride=(1, 1))
                (2): ReLU(inplace=True)
                (3): Conv2d(16, 256, kernel_size=(1, 1), stride=(1, 1))
                (4): Sigmoid()
              )
            )
          )
        )
        (6): RCAB_Block(
          (rcab): Sequential(
            (0): Conv2d(256, 256, kernel_size=(3, 3), stride=(1, 1), padding=(1, 1))
            (1): ReLU(inplace=True)
            (2): Conv2d(256, 256, kernel_size=(3, 3), stride=(1, 1), padding=(1, 1))
            (3): CA_Block(
              (se_module): Sequential(
                (0): AdaptiveAvgPool2d(output_size=1)
                (1): Conv2d(256, 16, kernel_size=(1, 1), stride=(1, 1))
                (2): ReLU(inplace=True)
                (3): Conv2d(16, 256, kernel_size=(1, 1), stride=(1, 1))
                (4): Sigmoid()
              )
            )
          )
        )
        (7): RCAB_Block(
          (rcab): Sequential(
            (0): Conv2d(256, 256, kernel_size=(3, 3), stride=(1, 1), padding=(1, 1))
            (1): ReLU(inplace=True)
            (2): Conv2d(256, 256, kernel_size=(3, 3), stride=(1, 1), padding=(1, 1))
            (3): CA_Block(
              (se_module): Sequential(
                (0): AdaptiveAvgPool2d(output_size=1)
                (1): Conv2d(256, 16, kernel_size=(1, 1), stride=(1, 1))
                (2): ReLU(inplace=True)
                (3): Conv2d(16, 256, kernel_size=(1, 1), stride=(1, 1))
                (4): Sigmoid()
              )
            )
          )
        )
        (8): RCAB_Block(
          (rcab): Sequential(
            (0): Conv2d(256, 256, kernel_size=(3, 3), stride=(1, 1), padding=(1, 1))
            (1): ReLU(inplace=True)
            (2): Conv2d(256, 256, kernel_size=(3, 3), stride=(1, 1), padding=(1, 1))
            (3): CA_Block(
              (se_module): Sequential(
                (0): AdaptiveAvgPool2d(output_size=1)
                (1): Conv2d(256, 16, kernel_size=(1, 1), stride=(1, 1))
                (2): ReLU(inplace=True)
                (3): Conv2d(16, 256, kernel_size=(1, 1), stride=(1, 1))
                (4): Sigmoid()
              )
            )
          )
        )
        (9): RCAB_Block(
          (rcab): Sequential(
            (0): Conv2d(256, 256, kernel_size=(3, 3), stride=(1, 1), padding=(1, 1))
            (1): ReLU(inplace=True)
            (2): Conv2d(256, 256, kernel_size=(3, 3), stride=(1, 1), padding=(1, 1))
            (3): CA_Block(
              (se_module): Sequential(
                (0): AdaptiveAvgPool2d(output_size=1)
                (1): Conv2d(256, 16, kernel_size=(1, 1), stride=(1, 1))
                (2): ReLU(inplace=True)
                (3): Conv2d(16, 256, kernel_size=(1, 1), stride=(1, 1))
                (4): Sigmoid()
              )
            )
          )
        )
        (10): RCAB_Block(
          (rcab): Sequential(
            (0): Conv2d(256, 256, kernel_size=(3, 3), stride=(1, 1), padding=(1, 1))
            (1): ReLU(inplace=True)
            (2): Conv2d(256, 256, kernel_size=(3, 3), stride=(1, 1), padding=(1, 1))
            (3): CA_Block(
              (se_module): Sequential(
                (0): AdaptiveAvgPool2d(output_size=1)
                (1): Conv2d(256, 16, kernel_size=(1, 1), stride=(1, 1))
                (2): ReLU(inplace=True)
                (3): Conv2d(16, 256, kernel_size=(1, 1), stride=(1, 1))
                (4): Sigmoid()
              )
            )
          )
        )
        (11): RCAB_Block(
          (rcab): Sequential(
            (0): Conv2d(256, 256, kernel_size=(3, 3), stride=(1, 1), padding=(1, 1))
            (1): ReLU(inplace=True)
            (2): Conv2d(256, 256, kernel_size=(3, 3), stride=(1, 1), padding=(1, 1))
            (3): CA_Block(
              (se_module): Sequential(
                (0): AdaptiveAvgPool2d(output_size=1)
                (1): Conv2d(256, 16, kernel_size=(1, 1), stride=(1, 1))
                (2): ReLU(inplace=True)
                (3): Conv2d(16, 256, kernel_size=(1, 1), stride=(1, 1))
                (4): Sigmoid()
              )
            )
          )
        )
        (12): RCAB_Block(
          (rcab): Sequential(
            (0): Conv2d(256, 256, kernel_size=(3, 3), stride=(1, 1), padding=(1, 1))
            (1): ReLU(inplace=True)
            (2): Conv2d(256, 256, kernel_size=(3, 3), stride=(1, 1), padding=(1, 1))
            (3): CA_Block(
              (se_module): Sequential(
                (0): AdaptiveAvgPool2d(output_size=1)
                (1): Conv2d(256, 16, kernel_size=(1, 1), stride=(1, 1))
                (2): ReLU(inplace=True)
                (3): Conv2d(16, 256, kernel_size=(1, 1), stride=(1, 1))
                (4): Sigmoid()
              )
            )
          )
        )
        (13): RCAB_Block(
          (rcab): Sequential(
            (0): Conv2d(256, 256, kernel_size=(3, 3), stride=(1, 1), padding=(1, 1))
            (1): ReLU(inplace=True)
            (2): Conv2d(256, 256, kernel_size=(3, 3), stride=(1, 1), padding=(1, 1))
            (3): CA_Block(
              (se_module): Sequential(
                (0): AdaptiveAvgPool2d(output_size=1)
                (1): Conv2d(256, 16, kernel_size=(1, 1), stride=(1, 1))
                (2): ReLU(inplace=True)
                (3): Conv2d(16, 256, kernel_size=(1, 1), stride=(1, 1))
                (4): Sigmoid()
              )
            )
          )
        )
        (14): RCAB_Block(
          (rcab): Sequential(
            (0): Conv2d(256, 256, kernel_size=(3, 3), stride=(1, 1), padding=(1, 1))
            (1): ReLU(inplace=True)
            (2): Conv2d(256, 256, kernel_size=(3, 3), stride=(1, 1), padding=(1, 1))
            (3): CA_Block(
              (se_module): Sequential(
                (0): AdaptiveAvgPool2d(output_size=1)
                (1): Conv2d(256, 16, kernel_size=(1, 1), stride=(1, 1))
                (2): ReLU(inplace=True)
                (3): Conv2d(16, 256, kernel_size=(1, 1), stride=(1, 1))
                (4): Sigmoid()
              )
            )
          )
        )
        (15): RCAB_Block(
          (rcab): Sequential(
            (0): Conv2d(256, 256, kernel_size=(3, 3), stride=(1, 1), padding=(1, 1))
            (1): ReLU(inplace=True)
            (2): Conv2d(256, 256, kernel_size=(3, 3), stride=(1, 1), padding=(1, 1))
            (3): CA_Block(
              (se_module): Sequential(
                (0): AdaptiveAvgPool2d(output_size=1)
                (1): Conv2d(256, 16, kernel_size=(1, 1), stride=(1, 1))
                (2): ReLU(inplace=True)
                (3): Conv2d(16, 256, kernel_size=(1, 1), stride=(1, 1))
                (4): Sigmoid()
              )
            )
          )
        )
        (16): RCAB_Block(
          (rcab): Sequential(
            (0): Conv2d(256, 256, kernel_size=(3, 3), stride=(1, 1), padding=(1, 1))
            (1): ReLU(inplace=True)
            (2): Conv2d(256, 256, kernel_size=(3, 3), stride=(1, 1), padding=(1, 1))
            (3): CA_Block(
              (se_module): Sequential(
                (0): AdaptiveAvgPool2d(output_size=1)
                (1): Conv2d(256, 16, kernel_size=(1, 1), stride=(1, 1))
                (2): ReLU(inplace=True)
                (3): Conv2d(16, 256, kernel_size=(1, 1), stride=(1, 1))
                (4): Sigmoid()
              )
            )
          )
        )
        (17): RCAB_Block(
          (rcab): Sequential(
            (0): Conv2d(256, 256, kernel_size=(3, 3), stride=(1, 1), padding=(1, 1))
            (1): ReLU(inplace=True)
            (2): Conv2d(256, 256, kernel_size=(3, 3), stride=(1, 1), padding=(1, 1))
            (3): CA_Block(
              (se_module): Sequential(
                (0): AdaptiveAvgPool2d(output_size=1)
                (1): Conv2d(256, 16, kernel_size=(1, 1), stride=(1, 1))
                (2): ReLU(inplace=True)
                (3): Conv2d(16, 256, kernel_size=(1, 1), stride=(1, 1))
                (4): Sigmoid()
              )
            )
          )
        )
        (18): RCAB_Block(
          (rcab): Sequential(
            (0): Conv2d(256, 256, kernel_size=(3, 3), stride=(1, 1), padding=(1, 1))
            (1): ReLU(inplace=True)
            (2): Conv2d(256, 256, kernel_size=(3, 3), stride=(1, 1), padding=(1, 1))
            (3): CA_Block(
              (se_module): Sequential(
                (0): AdaptiveAvgPool2d(output_size=1)
                (1): Conv2d(256, 16, kernel_size=(1, 1), stride=(1, 1))
                (2): ReLU(inplace=True)
                (3): Conv2d(16, 256, kernel_size=(1, 1), stride=(1, 1))
                (4): Sigmoid()
              )
            )
          )
        )
        (19): RCAB_Block(
          (rcab): Sequential(
            (0): Conv2d(256, 256, kernel_size=(3, 3), stride=(1, 1), padding=(1, 1))
            (1): ReLU(inplace=True)
            (2): Conv2d(256, 256, kernel_size=(3, 3), stride=(1, 1), padding=(1, 1))
            (3): CA_Block(
              (se_module): Sequential(
                (0): AdaptiveAvgPool2d(output_size=1)
                (1): Conv2d(256, 16, kernel_size=(1, 1), stride=(1, 1))
                (2): ReLU(inplace=True)
                (3): Conv2d(16, 256, kernel_size=(1, 1), stride=(1, 1))
                (4): Sigmoid()
              )
            )
          )
        )
        (20): Conv2d(256, 256, kernel_size=(3, 3), stride=(1, 1), padding=(1, 1))
      )
    )
    (10): Conv2d(256, 256, kernel_size=(3, 3), stride=(1, 1), padding=(1, 1))
  )
  (upsampling): Sequential(
    (0): Conv2d(256, 512, kernel_size=(3, 3), stride=(1, 1), padding=(1, 1))
    (1): ReLU(inplace=True)
    (2): ConvTranspose2d(512, 256, kernel_size=(3, 3), stride=(2, 2), padding=(1, 1), output_padding=(1, 1))
    (3): ReLU(inplace=True)
    (4): ConvTranspose2d(256, 128, kernel_size=(3, 3), stride=(2, 2), padding=(1, 1), output_padding=(1, 1))
    (5): ReLU(inplace=True)
    (6): ConvTranspose2d(128, 64, kernel_size=(3, 3), stride=(2, 2), padding=(1, 1), output_padding=(1, 1))
    (7): ReLU(inplace=True)
    (8): ReflectionPad2d((3, 3, 3, 3))
    (9): Conv2d(64, 3, kernel_size=(7, 7), stride=(1, 1))
    (10): Tanh()
  )
)Setting up a new session...
Traceback (most recent call last):
  File "/home/shihonghong/anaconda3/envs/torch-cuda/lib/python3.6/site-packages/urllib3/connection.py", line 160, in _new_conn
    (self._dns_host, self.port), self.timeout, **extra_kw
  File "/home/shihonghong/anaconda3/envs/torch-cuda/lib/python3.6/site-packages/urllib3/util/connection.py", line 84, in create_connection
…
    r = adapter.send(request, **kwargs)
  File "/home/shihonghong/anaconda3/envs/torch-cuda/lib/python3.6/site-packages/requests/adapters.py", line 516, in send
    raise ConnectionError(e, request=request)
requests.exceptions.ConnectionError: HTTPConnectionPool(host='localhost', port=8097): Max retries exceeded with url: /env/main (Caused by NewConnectionError('<urllib3.connection.HTTPConnection object at 0x7f4a38791860>: Failed to establish a new connection: [Errno 111] Connection refused',))
[Errno 111] Connection refused

Total number of parameters: 247341891
NLayerDiscriminator(
  (model): Sequential(
    (0): Conv2d(3, 64, kernel_size=(4, 4), stride=(2, 2), padding=(1, 1))
    (1): LeakyReLU(negative_slope=0.2, inplace=True)
    (2): Conv2d(64, 128, kernel_size=(4, 4), stride=(2, 2), padding=(1, 1), bias=False)
    (3): BatchNorm2d(128, eps=1e-05, momentum=0.1, affine=True, track_running_stats=True)
    (4): LeakyReLU(negative_slope=0.2, inplace=True)
    (5): Conv2d(128, 256, kernel_size=(4, 4), stride=(2, 2), padding=(1, 1), bias=False)
    (6): BatchNorm2d(256, eps=1e-05, momentum=0.1, affine=True, track_running_stats=True)
    (7): LeakyReLU(negative_slope=0.2, inplace=True)
    (8): Conv2d(256, 512, kernel_size=(4, 4), stride=(2, 2), padding=(1, 1), bias=False)
    (9): BatchNorm2d(512, eps=1e-05, momentum=0.1, affine=True, track_running_stats=True)
    (10): LeakyReLU(negative_slope=0.2, inplace=True)
    (11): Conv2d(512, 512, kernel_size=(4, 4), stride=(1, 1), padding=(1, 1), bias=False)
    (12): BatchNorm2d(512, eps=1e-05, momentum=0.1, affine=True, track_running_stats=True)
    (13): LeakyReLU(negative_slope=0.2, inplace=True)
    (14): Conv2d(512, 1, kernel_size=(4, 4), stride=(1, 1), padding=(1, 1))
    (15): Sigmoid()
  )
)
Total number of parameters: 6960961
-----------------------------------------------
model [HalfGanStyleModel] was created
Exception in user code:
------------------------------------------------------------
create web directory ./checkpoints/model_change/web...
Traceback (most recent call last):
  File "train.py", line 38, in <module>
…
